centrailsed_weights.npz (npz, 168818 bytes, 8 tensors)

arr_0 f4 [78, 200]
0.7505577 -1.5482609 -1.0956562 -4.476364 -0.46149978 0.27108863 -1.1675867 -1.1665999
-0.44862762 0.10429667 -0.6493551 1.1444149 0.72727644 -2.4793768 0.10742447 -0.0017356543
3.5410361 -0.6736666 -0.3511601 3.170353 0.19774078 0.32902402 -0.29357076 0.16485752
-0.47483158 0.58316237 -0.0010196323 -0.53419816 0.49714354 0.8801808 -0.09838728 0.011693506
-1.2402549 -0.31855947 0.040356126 -0.14924175 -0.6462071 0.38178995 3.0288403 -1.5512476
0.39841223 -0.3820521 -0.7716041 -0.23943047 -0.5243625 -2.2048042 -1.1143992 0.8871262
0.3066729 -0.2496079 -0.073977254 -1.3349625 2.224161 1.5602684 0.058806624 0.35499984
-2.6035497 2.463934 -1.3201703 -1.2697619 0.42672804 1.6036985 0.7250967 -1.4001052
3.6578596 -2.0259514 4.433475 -0.17262118 2.48732 0.3839776 0.02160257 -0.2522413
0.4157222 -1.5931536 1.5893008 0.3373013 0.02424746 1.9098853 -0.46607298 -0.0025997646
1.2440741 -0.14741085 0.8943036 -0.90385026 -0.8001844 -2.5503619 0.12511003 -0.30839878
-0.756682 -1.4800199 -0.7231998 -1.346595 0.5975657 -0.05725873 -1.0234659 0.84178233
-0.33145753 0.40477443 1.6725886 2.627146 -0.9249952 -0.7278091 -0.86182564 -0.20990843
-0.22118427 0.65491164 -0.6184049 0.87437403 4.379085 -1.6373372 -0.8359322 0.7948621
0.7890357 0.37547323 0.5496911 -1.0599606 1.3232385 0.1335405 2.480688 3.0237527
-2.084073 -0.40199238 -0.33848056 0.11051904 -0.4328079 0.2797605 0.028098347 -1.6148261
1.270722 -0.7132255 -0.043534227 -0.4256764 0.14567482 1.8599108 -1.3952316 -0.14213772
-1.0324143 -1.3767059 0.00080165686 2.2404768 -1.7171341 0.52223194 -1.5533757 -0.78781056
-0.35361668 3.0788932 1.1156703 -0.68349785 1.2094119 2.5198696 -3.5945482 -0.048958555
0.10746934 -0.27931333 -3.9814694 1.1629722 -1.3361635 -0.26051766 -0.3740426 1.4502325
-0.812716 -0.32406712 0.6098975 -0.36482733 0.84409535 -0.42496663 0.023619086 -0.080387615
1.3749373 0.13718864 -1.1626675 -0.18072924 0.98312795 -0.026769945 0.4149728 -1.4780763
-0.3259208 -1.1649 -0.8786961 0.57746977 0.01668551 -2.2731738 -0.6730766 1.1299878
-0.30956855 1.0576031 1.4738879 0.8973113 1.0306008 0.35585824 -0.67932904 -0.048604723
0.16024475 1.4830254 1.0981237 0.68944275 1.3269866 -1.9872369 0.03250995 -0.33873624
0.15407892 0.3462933 0.32072562 -0.23724791 -0.33277208 -0.15593119 -0.23631851 0.49736625
0.22737311 -0.37194937 0.32576582 0.2998971 -0.13713583 0.07054999 0.301556 0.5261546
0.14959225 -0.19892924 0.17478195 -0.034350947 0.38367233 0.007050221 0.06189254 -0.31943122
-0.18363638 -0.1272669 -0.34850362 -0.18555894 -0.2130065 -0.08711028 -0.39906716 0.0068141078
0.0628789 0.8109194 0.48259777 -0.2343135 -0.063737676 0.029789342 -0.20625065 0.5110578
0.08392157 0.107016735 0.07208399 -0.07079511 0.30729476 0.14936395 0.4036917 0.43413636
0.26701048 -0.19284184 0.27400112 0.15586644 -0.25770333 0.13099135 0.0022954703 -0.3831903
00000000: 8d24 403f 6a2d c6bf 763e 8cbf 603e 8fc0
00000010: b349 ecbe 21cc 8a3e 7b73 95bf 2553 95bf
00000020: 85b2 e5be 7e99 d53d 233c 26bf 307c 923f
00000030: ca2e 3a3f 1cae 1ec0 5c01 dc3d e57e e3ba
00000040: 56a0 6240 6a75 2cbf 42cb b3be 10e7 4a40
00000050: 8f7c 4a3e d675 a83e e84e 96be 69d0 283e
00000060: 201d f3be 214a 153f 2fa5 85ba 36c1 08bf
00000070: 9989 fe3e 8753 613f 457f c9bd 1e96 3f3c
00000080: acc0 9ebf 3a1a a3be 774c 253d d4d2 18be
00000090: d46d 25bf f979 c33e 85d8 4140 488f c6bf
000000a0: b0fc cb3e 559c c3be d987 45bf 432d 75be
000000b0: 9f3c 06bf 831b 0dc0 a2a4 8ebf b41a 633f
000000c0: 3b04 9d3e 3799 7fbe 6381 97bd 0de0 aabf
000000d0: a758 0e40 e0b6 c73f 37df 703d 8ac2 b53e
000000e0: 8fa0 26c0 18b1 1d40 57fb a8bf 8f87 a2bf
000000f0: 197c da3e fe45 cd3f f09f 393f a636 b3bf
00000100: 5f1a 6a40 30a9 01c0 07df 8d40 9bc3 30be
00000110: 4030 1f40 b698 c43e dff7 b03c c625 81be
00000120: 8ad9 d43e 75ec cbbf 356e cb3f c2b2 ac3e
00000130: 9ca2 c63c 1f77 f43f 1ea1 eebe d060 2abb
00000140: d23d 9f3f dff2 16be 15f1 643f bb62 67bf
00000150: e3d8 4cbf 2139 23c0 d81c 003e 72e6 9dbe
00000160: e9b5 41bf 4b71 bdbf 9f23 39bf 3a5d acbf
00000170: 11fa 183f 2188 6abd ee00 83bf 0c7f 573f
00000180: cdb4 a9be 983e cf3e 6217 d63f 2923 2840
00000190: 7ccc 6cbf b251 3abf 9ba0 5cbf 3cf2 56be
000001a0: 217e 62be 4aa8 273f c94f 1ebf fad6 5f3f
000001b0: 7721 8c40 4494 d1bf a7ff 55bf 157c 4b3f
000001c0: 3efe 493f 073e c03e 8eb8 0c3f caac 87bf
000001d0: e15f a93f d7be 083e 98c3 1e40 2a85 4140
000001e0: 7461 05c0 f2d1 cdbe 534d adbe ce57 e23d
000001f0: ff98 ddbe c53c 8f3e 812e e63c 9fb2 cebf
00000200: 05a7 a23f f295 36bf f250 32bd 42f2 d9be
00000210: c82b 153e 8f11 ee3f f396 b2bf 8d8c 11be
00000220: 2726 84bf e637 b0bf 4826 523a f963 0f40
00000230: 0dcb dbbf feb0 053f 04d5 c6bf f4ad 49bf
00000240: 3f0d b5be 960c 4540 49ce 8e3f b7f9 2ebf
00000250: 02ce 9a3f 8b45 2140 140d 66c0 c488 48bd
00000260: e318 dc3d 2802 8fbe 65d0 7ec0 46dc 943f
00000270: 6807 abbf 9262 85be 8382 bfbe 38a1 b93f
00000280: 280e 50bf 20ec a5be 3e22 1c3f a6ca babe
00000290: a216 583f 3a95 d9be d07c c13c 43a2 a4bd
000002a0: f2fd af3f 2e7b 0c3e 4ad2 94bf 1611 39be
000002b0: 46ae 7b3f a54c dbbc 5177 d43e 9b31 bdbf
000002c0: 17df a6be 711b 95bf 3af2 60bf 0fd5 133f
000002d0: 0db0 883c ae7b 11c0 c04e 2cbf 71a3 903f
000002e0: c57f 9ebe 8a5f 873f 5ca8 bc3f 31b6 653f
000002f0: baea 833f 0d33 b63e 82e8 2dbf bf15 47bd
00000300: 3317 243e c7d3 bd3f 518f 8c3f 527f 303f
00000310: b2da a93f c75d febf 2729 053d d66e adbe
00000320: ddc6 1d3e 5b4d b13e 2636 a43e 1ef1 72be
00000330: 1a61 aabe 6dac 1fbe 7bfd 71be caa6 fe3e
00000340: 7fd4 683e 2670 bebe c7ca a63e 1d8c 993e
00000350: 566d 0cbe 837c 903d 8c65 9a3e 11b2 063f
00000360: b62e 193e 1bb4 4bbe 0afa 323e 94b3 0cbd
00000370: b370 c43e 8a05 e73b 0883 7d3d 7d8c a3be
00000380: 2d0b 3cbe 4152 02be 116f b2be 2a03 3ebe
00000390: 601e 5abe e066 b2bd 8852 ccbe e148 df3b
000003a0: a7c6 803d 6a98 4f3f 0e17 f73e e1ef 6fbe
000003b0: e688 82bd c708 f43c 5f33 53be afd4 023f
000003c0: 12df ab3d 972b db3d c5a0 933d 07fd 90bd
000003d0: bd55 9d3e ddf2 183e aeb0 ce3e 1f47 de3e
000003e0: 99b5 883e 5578 45be e049 8c3e 749b 1f3e
000003f0: b1f1 83be 9922 063e 9a6f 163b 8531 c4be

arr_1 f4 [200]
0.64421 0.5705994 0.001950781 -0.24951395 0.5108926 0.53085184 -0.4863525 -0.07628992
-0.19440266 -0.479268 0.22909905 0.34794575 0.6375486 -0.60645634 -0.80020404 -0.20514055
1.0780312 -0.12283653 -0.09084994 0.24125613 0.22096244 0.35369712 -0.013520291 0.4462131
-0.86549085 -0.64902526 0.267342 0.18156059 0.6718058 -0.54205215 -0.21680684 -1.6911478
-0.4736151 -0.6622506 0.26434404 -0.19739684 -0.11759766 -0.30912572 0.13264869 0.1711935
-0.10923451 -0.7052536 -0.07634583 0.061831508 -0.022943093 -0.25444645 0.6703132 -0.38622907
0.42889827 -0.3510946 0.4910247 -0.013958666 0.5633825 0.3499299 -0.77309024 0.14198013
0.055535443 0.4043808 0.52526855 -0.72442216 0.44489163 0.67721653 0.2671445 0.13831277
0.6889264 -0.11228862 0.79168606 0.20819847 0.16912512 0.12820023 0.3923752 -0.46924385
-0.012538448 0.04864384 0.4038387 0.3703383 0.49924788 -0.1429554 -0.30065614 -0.39993697
-0.20551728 -0.10900354 0.19287357 -0.14776307 -0.35035405 -1.2565038 0.33208257 0.780089
-0.12661679 -0.32780197 -0.60465705 -1.0026697 0.08056344 -0.17651668 1.8206736 -0.5104464
-0.5955052 1.3210008 -0.19925936 0.49706382 -0.3067896 -0.6456086 -0.5231954 -1.130964
-0.55428904 0.46849653 -0.3399686 -0.12691656 0.7712466 -0.590226 0.17929988 0.42035553
-0.056056395 0.044788178 0.13512737 0.18812267 0.23422207 -0.12585698 0.45602816 0.65347874
-0.049901012 0.13952976 -0.52292824 0.50421476 -0.6291598 -0.5616993 0.5266919 -0.37963754
-0.6866206 -1.1014186 0.14016244 -0.708319 0.78981394 -0.39608604 0.018344566 -0.47011256
-0.54984766 -0.22245069 -0.3888568 0.41153845 0.18968482 -0.29764307 -0.56972295 -0.32613412
-0.6104062 0.8615832 0.5676075 -0.59209794 0.26443574 0.24307258 -0.70619476 0.24185771
-0.3940047 0.21028431 -0.555353 0.18727987 0.1091238 -0.24259658 0.2335735 0.0752406
-0.495749 0.5419184 -0.07666066 -0.08657797 0.7504103 -0.123599455 -0.243673 -0.40240407
0.5904587 0.20795347 -0.47115022 0.92553806 0.3275164 0.11756608 -0.005221337 -0.4831216
-0.37947482 -0.3182167 -0.74721855 0.6235417 -0.16203505 -0.17751424 0.7050796 0.8046111
-0.15631706 0.43209413 0.54810685 1.1545552 0.851246 0.65857756 -0.6749394 0.020244714
0.32046932 0.5135383 0.69250166 0.82813674 -0.27498716 -0.17668799 -0.16151917 -0.17811622
00000000: f2ea 243f cd12 123f 59b1 ff3a 9680 7fbe
00000010: dcc9 023f e8e5 073f 3203 f9be e43d 9cbd
00000020: 7e11 47be 9e62 f5be f198 6a3e f225 b23e
00000030: 6336 233f b940 1bbf 2cda 4cbf 5d10 52be
00000040: edfc 893f b891 fbbd 890f babd d90b 773e
00000050: fa43 623e ca17 b53e 3684 5dbc 0b76 e43e
00000060: cf90 5dbf 8526 26bf 0de1 883e 05eb 393e
00000070: 77fb 2b3f eec3 0abf 9d02 5ebe 8877 d8bf
00000080: ae7d f2be 4189 29bf 1a58 873e 6622 4abe
00000090: 0bd7 f0bd ba45 9ebe 0fd5 073e 594d 2f3e
000000a0: 58b6 dfbd 808b 34bf 345b 9cbd 0943 7d3d
000000b0: 27f3 bbbc ce46 82be a599 2b3f d1bf c5be
000000c0: 8e98 db3e acc2 b3be 9767 fb3e e3b2 64bc
000000d0: d639 103f 032a b33e 3ee9 45bf 3d63 113e
000000e0: 2279 633d 000b cf3e 0078 063f bb73 39bf
000000f0: d6c8 e33e 105e 2d3f 2ac7 883e dda1 0d3e
00000100: 7b5d 303f 93f7 e5bd f0ab 4a3f fb31 553e
00000110: 232f 2d3e ec46 033e 67e5 c83e bb40 f0be
00000120: 106e 4dbc c33e 473d f2c3 ce3e fb9c bd3e
00000130: 6b9d ff3e e662 12be 9aef 99be 8ac4 ccbe
00000140: 1f73 52be 3f3d dfbd a680 453e 344f 17be
00000150: 9b61 b3be 1ed5 a0bf ba06 aa3e eab3 473f
00000160: d5a7 01be a9d5 a7be ceca 1abf 7b57 80bf
00000170: 72fe a43d cac0 34be d50b e93f 9eac 02bf
00000180: 0773 18bf 8e16 a93f a50a 4cbe 267f fe3e
00000190: 8713 9dbe 9b46 25bf 22f0 05bf 6ec3 90bf
000001a0: e3e5 0dbf c7de ef3e 5d10 aebe 6af6 01be
000001b0: 6b70 453f 0d19 17bf 639a 373e d738 d73e
000001c0: 649b 65bd cf73 373d d45e 0a3e 3ba3 403e
000001d0: e9d7 6f3e a7e0 00be 867c e93e 624a 273f
000001e0: 0165 4cbd e4e0 0e3e a0de 05bf 3814 013f
000001f0: 9e10 21bf 86cb 0fbf 48d5 063f da5f c2be
00000200: 5ec6 2fbf 49fb 8cbf be86 0f3e 6554 35bf
00000210: 3f31 4a3f cacb cabe 5847 963c 98b2 f0be
00000220: d1c2 0cbf 1dca 63be 3d18 c7be 2bb5 d23e
00000230: bd3c 423e ac64 98be 5dd9 11bf 0dfb a6be
00000240: 9543 1cbf b790 5c3f ba4e 113f bb93 17bf
00000250: 1f64 873e 05e8 783e 2ec9 34bf 8ca9 773e
00000260: fcba c9be c554 573e 9d2b 0ebf 4bc6 3f3e
00000270: 4d7c df3d 3d6b 78be e42d 6f3e be17 9a3d
00000280: d0d2 fdbe 2abb 0a3f 4400 9dbd ca4f b1bd
00000290: e41a 403f b621 fdbd 6a85 79be e807 cebe
000002a0: 4d28 173f c1f1 543e 9a3a f1be 10f0 6c3f
000002b0: 3bb0 a73e 7cc6 f03d c017 abbb b75b f7be
000002c0: 864a c2be 4ded a2be b749 3fbf 6ea0 1f3f
000002d0: 84ec 25be 4bc6 35be 1980 343f fefa 4d3f
000002e0: 9411 20be 713b dd3e bb50 0c3f 77c8 933f
000002f0: 42eb 593f 8a98 283f d4c8 2cbf 3ed8 a53c
00000300: 8e14 a43e 3f77 033f ca47 313f c500 543f
00000310: 1ecb 8cbe b2ed 34be 4865 25be 1964 36be

arr_2 f4 [200, 100]
0.4492682 0.7210361 0.58704305 -0.8599215 -0.5897885 0.7373042 -0.4804687 -0.15801437
-0.8963324 0.42532754 -2.2412078 -0.068346344 -0.71199757 0.12992772 -0.21333957 -1.7942609
0.022553433 -0.25954604 0.6324888 -0.10242083 0.44620648 -0.26959145 -0.015486561 -1.2847731
0.2463489 0.45066944 -1.0742447 0.62066954 0.8457354 0.5025456 -1.4430419 -0.08348043
0.06643065 -0.2881428 -0.1922547 -0.1502011 -0.7748474 0.8548145 0.28804415 0.32109633
-0.13775872 0.915291 -0.21736495 -0.5769885 0.434383 0.09430113 0.23620342 0.6556168
1.4006768 -0.014649083 1.1305622 -0.30030087 2.3157425 -0.4352857 -0.4925482 0.26361835
-0.22961685 0.4738316 -0.68452543 0.87234384 -0.252491 0.27319342 0.86723185 -0.9218537
1.4061936 -0.28097558 0.7396016 -1.0072271 -0.47777247 1.7723821 1.2477796 -0.25267422
0.03555407 -0.27029482 -0.47778034 -0.22041377 0.0007785506 1.1021177 -0.40284923 -0.32628837
0.057031725 0.7950615 -0.10193453 1.392171 0.26205483 -1.4328725 -1.4585041 0.11523793
-0.5944503 0.07919014 0.46671683 -0.24987115 0.59141856 1.1842964 2.2758138 0.58354485
-1.61704 -0.5473272 0.2891125 0.16445312 0.58337903 -0.19179055 -0.3575726 0.21622384
0.38153687 0.17354433 -0.7884335 0.4531336 0.34652048 -0.012131849 -0.24975798 -0.18083595
0.10307529 0.6363032 0.21174046 -0.08617224 -0.32283175 -0.39709935 0.29177755 0.13001783
0.05173037 0.4469251 -0.3904326 -0.10461946 0.017905418 -0.38690072 0.52285796 -1.024854
-0.007996877 -0.63960344 -0.113832444 -0.1761171 0.747136 1.2917539 0.11429382 0.13045117
0.32033566 -0.04529033 0.4915707 0.1601831 0.9597811 -0.11198031 1.5703968 0.17502084
0.66536963 0.18465911 -0.21572256 -1.0300105 0.0043456773 -1.3952104 -0.9805308 0.11382976
-0.035753075 -0.41296145 0.3230341 0.5498451 -0.15382835 0.12766244 0.09674778 -0.3379028
-0.42480278 0.19109163 0.21388797 1.4472946 -0.76592445 0.8523556 -0.007573536 -0.57120043
-0.59627026 0.053526368 0.021746647 0.301047 1.1261586 0.8309735 -1.0695401 -0.45637324
-0.2305345 0.3666245 -0.0358205 -0.10118236 -0.033575803 0.60903317 0.36283895 -0.35207716
-0.17967503 0.6927601 0.51118654 0.3467332 -1.0532969 0.28866014 0.5096455 -0.35337874
0.35927123 0.31140435 0.6955232 -0.79529124 0.08952482 -0.99541146 -0.80386966 0.22501792
0.35841593 -0.5499705 -0.85758936 0.39356157 0.099750146 0.04359408 -0.00011728185 0.38927546
0.12644221 -0.07539228 0.023673704 0.20446448 -0.25668988 0.7995794 -0.07898172 0.0064048516
-0.75971115 -0.76202095 1.1321547 0.4111308 -0.30758685 0.21756741 -0.14691982 -0.41079506
-0.28723845 0.41473487 0.70826405 -0.1697064 0.46081936 -0.64514273 -3.2912154e-05 -0.60446775
0.17540753 0.54809195 -0.32327184 -0.7915774 0.26608106 0.16695938 0.29064685 0.33894482
0.3528248 -0.70273626 0.5067779 -0.5292117 0.2105614 0.38863108 0.10397216 -0.095215894
-0.17270057 0.008550401 -0.045344066 0.13595976 0.2672638 0.5816582 0.07570401 0.06016949
00000000: 7b06 e63e d295 383f 7448 163f d123 5cbf
00000010: 61fc 16bf f8bf 3c3f feff f5be 85ce 21be
00000020: 0a76 65bf 88c4 d93e f36f 0fc0 2bf9 8bbd
00000030: 7945 36bf c60b 053e b075 5abe 57aa e5bf
00000040: fac1 b83c 38e3 84be c9ea 213f 03c2 d1bd
00000050: 2d75 e43e e407 8abe 58bb 7dbc 7273 a4bf
00000060: e342 7c3e 25be e63e da80 89bf 33e4 1e3f
00000070: 1d82 583f d4a6 003f 99b5 b8bf caf7 aabd
00000080: cb0c 883d 7487 93be 6bde 44be 51ce 19be
00000090: 665c 46bf 20d5 5a3f 867a 933e bd66 a43e
000000a0: 9f10 0dbe 8350 6a3f eb94 5ebe 85b5 13bf
000000b0: 7367 de3e f320 c13d 4fdf 713e 81d6 273f
000000c0: 6149 b33f b502 70bc 43b6 903f 09c1 99be
000000d0: 2035 1440 c4dd debe 472f fcbe fcf8 863e
000000e0: ae20 6bbe 0e9a f23e 0f3d 2fbf ed51 5f3f
000000f0: 8046 81be 02e0 8b3e e802 5e3f 9bfe 6bbf
00000100: 27fe b33f 08dc 8fbe 8856 3d3f d1ec 80bf
00000110: 989e f4be 6bdd e23f 3eb7 9f3f 845e 81be
00000120: 25a1 113d 1564 8abe a09f f4be 26b4 61be
00000130: a517 4c3a 3112 8d3f 4142 cebe 450f a7be
00000140: 199a 693d 2789 4b3f 0dc3 d0bd a932 b23f
00000150: 0d2c 863e 5e68 b7bf 43b0 babf dd01 ec3d
00000160: e52d 18bf 712e a23d 82f5 ee3e 39de 7fbe
00000170: 3567 173f 0697 973f efa6 1140 3263 153f
00000180: 2bfb cebf a31d 0cbf 8e06 943e 6666 283e
00000190: 5458 153f be64 44be c113 b7be c869 5d3e
000001a0: cd58 c33e 9bb5 313e c7d6 49bf 2101 e83e
000001b0: 226b b13e aac4 46bc 8ec0 7fbe 0f2d 39be
000001c0: 2319 d33d c4e4 223f 7ed2 583e 127b b0bd
000001d0: 344a a5be 9b50 cbbe de63 953e 6523 053e
000001e0: 39e3 533d 5ed3 e43e c8e6 c7be ba42 d6bd
000001f0: 62ae 923c da17 c6be 05da 053f 6a2e 83bf
00000200: 5505 03bc 0dbd 23bf fc20 e9bd 0b58 34be
00000210: 4e44 3f3f 3158 a53f e112 ea3d fe94 053e
00000220: 0903 a43e 5a82 39bd 28af fb3e 0a07 243e
00000230: 37b4 753f ef55 e5bd c302 c93f aa38 333e
00000240: aa55 2a3f 4717 3d3e 60e6 5cbe 62d7 83bf
00000250: 2f66 8e3b 4196 b2bf 1104 7bbf 941f e93d
00000260: d171 12bd af6f d3be ba64 a53e a6c2 0c3f
00000270: 2e85 1dbe f1b9 023e b323 c63d 9901 adbe
00000280: c07f d9be 86ad 433e 7305 5b3e f340 b93f
00000290: a013 44bf fa33 5a3f 6d2b f8bb 313a 12bf
000002a0: 2ba5 18bf 773e 5b3d 0626 b23c d522 9a3e
000002b0: f725 903f aeba 543f b1e6 88bf c1a9 e9be
000002c0: 3c11 6cbe 35b6 bb3e 84b8 12bd b238 cfbd
000002d0: c886 09bd 99e9 1b3f 07c6 b93e 7543 b4be
000002e0: bbfc 37be ba58 313f 1fdd 023f 0487 b13e
000002f0: 6fd2 86bf 43cb 933e 2178 023f 0fee b4be
00000300: 66f2 b73e 6470 9f3e cf0d 323f 3598 4bbf
00000310: ca58 b73d 49d3 7ebf 67ca 4dbf 196b 663e
00000320: 4b82 b73e deca 0cbf fa8a 5bbf e780 c93e
00000330: ce49 cc3d b58f 323d 37f5 f5b8 1d4f c73e
00000340: 117a 013e 4567 9abd 5bef c13c 235f 513e
00000350: db6c 83be 3cb1 4c3f 2bc1 a1bd cadf d13b
00000360: 6e7c 42bf ce13 43bf 72ea 903f bc7f d23e
00000370: 067c 9dbe fec9 5e3e 2672 16be bb53 d2be
00000380: eb10 93be 2158 d43e cb50 353f 84c7 2dbe
00000390: 84f0 eb3e 1328 25bf 280b 0ab8 66be 1abf
000003a0: 089e 333e c14f 0c3f e383 a5be d1a4 4abf
000003b0: c73b 883e 66f7 2a3e aacf 943e 2d8a ad3e
000003c0: 74a5 b43e 86e6 33bf 32bc 013f 6b7a 07bf
000003d0: 689d 573e a7fa c63e 5bef d43d 8d00 c3bd
000003e0: 6bd8 30be fb16 0c3c b3ba 39bd 0939 0b3e
000003f0: cdd6 883e 8de7 143f b40a 9b3d 4874 763d

arr_3 f4 [100]
-0.9801552 0.76942575 1.028898 -0.09011614 0.018960306 -1.0405118 -0.34168127 0.2810567
0.8451265 -0.1431178 0.34031528 -0.6647182 -0.49451414 0.6341439 0.57067096 -0.54849386
0.15266761 0.71997803 1.2666575 0.429925 -1.2076064 1.009895 -1.9427415 -0.1461568
-0.7900953 0.041751705 -0.38981342 0.027636932 0.7813106 -1.5434569 -0.9975588 1.3250608
1.7160385 1.658827 -0.97896117 0.05343049 -0.6534631 -1.7586762 -0.36943802 0.65338415
-0.7582582 -0.95813155 1.2787554 -1.3139026 0.15838508 0.23227148 1.1855465 -0.51773715
0.23327248 -0.1419325 -0.20671508 0.622655 0.54539895 -1.6707876 -0.43849736 0.69899356
-0.03505218 0.40657124 -0.76016665 -0.12904958 1.4515661 -0.69120073 -0.49049625 1.9806443
1.000903 0.06279226 -0.37994063 -0.5556033 1.6598415 -2.2608733 0.023372374 1.0715903
0.44983122 0.12235375 -0.0352496 0.49707818 -1.7349147 -0.4740713 -0.62818694 -0.1827237
-0.31830326 -0.091695584 0.229209 0.8761724 -0.07288716 0.019201074 0.7905551 0.18956092
0.6223731 -1.035866 -0.513017 -0.4730246 -0.61795694 1.3281736 -0.6018321 -1.7550133
1.3503865 0.23942703 -0.30285072 -0.5432212
00000000: 74eb 7abf 16f9 443f eeb2 833f d08e b8bd
00000010: a552 9b3c 7e2f 85bf d9f0 aebe aae6 8f3e
00000020: 365a 583f 798d 12be ce3d ae3e f92a 2abf
00000030: f530 fdbe 4157 223f 7e17 123f 186a 0cbf
00000040: e654 1c3e 7b50 383f d521 a23f 211f dc3e
00000050: d992 9abf 3d44 813f c1ab f8bf 21aa 15be
00000060: b043 4abf d603 2b3d a095 c7be d966 e23c
00000070: f903 483f ff8f c5bf 0360 7fbf 989b a93f
00000080: 26a7 db3f 7154 d43f 339d 7abf eed9 5a3d
00000090: 5c49 27bf 4d1c e1bf fb26 bdbe 2f44 273f
000000a0: 361d 42bf 1c48 75bf 42ae a33f f62d a8bf
000000b0: b32f 223e 93d8 6d3e fdbf 973f 6c8a 04bf
000000c0: fbde 6e3e c156 11be 1ead 53be 5166 1f3f
000000d0: 449f 0b3f 5edc d5bf ba82 e0be 3ef1 323f
000000e0: e092 0fbd 1b2a d03e 489a 42bf 9325 04be
000000f0: ebcc b93f 88f2 30bf 5322 fbbe c185 fd3f
00000100: 971d 803f 3a99 803d 9487 c2be 053c 0ebf
00000110: b075 d43f 26b2 10c0 6c77 bf3c df29 893f
00000120: 4750 e63e 9a94 fa3d e261 10bd 0881 fe3e
00000130: af11 debf 79b9 f2be dcd0 20bf ec1b 3bbe
00000140: a5f8 a2be e5ca bbbd c4b5 6a3e d64c 603f
00000150: dd45 95bd 924b 9d3c d261 4a3f 421c 423e
00000160: d853 1f3f 4297 84bf 1555 03bf 4830 f2be
00000170: 6d32 1ebf 9801 aa3f ab11 1abf 47a4 e0bf
00000180: 77d9 ac3f 5c2c 753e 400f 9bbe 8b10 0bbf

arr_4 f4 [100, 50]
0.21760432 -0.44317862 -0.6504824 -0.22482865 -0.285964 1.0165755 0.07209226 -0.17609029
-0.48474646 0.48106277 0.500021 -0.25621814 0.18989728 0.2016986 -0.3951165 0.3085597
-0.2589769 0.4772446 0.073642105 0.1389761 -0.10038259 0.023775464 -0.31878388 0.73730946
0.2526801 0.23310372 0.4782422 0.19957113 -0.04814796 -0.31645092 -0.692905 -0.07182782
0.46758753 1.1110146 0.24151395 -1.057318 0.8206136 -0.23308964 0.6639566 0.29871446
0.17472371 1.2612743 0.44505632 0.76326156 -0.06734831 -0.23769833 0.108956136 -0.28802028
-0.23827212 0.44039413 0.6500279 -0.7055475 0.24336088 -0.12836602 0.065564334 -0.37421528
0.4831765 0.50268304 -0.5656209 -0.017156055 -0.39183006 0.4993194 -0.8466186 0.20343986
0.43202195 -0.64121413 0.28347823 -1.0937191 -0.24506824 -0.262517 -0.7995398 -0.46991572
1.2389599 0.7118017 -0.39567178 -0.76039064 0.39144632 0.21434571 0.9379089 0.34850302
-0.41712147 0.5353785 0.30477577 -0.06720303 -0.71625525 0.24922 0.7811442 0.13647632
-0.5664471 0.2083462 0.17800015 -0.43357748 -0.6887475 -0.043832693 -0.23256756 0.20093091
0.30270824 -0.13703133 -0.15117767 0.43599284 0.1228302 -0.30968693 0.39765948 -0.18371525
-0.114148855 -0.7214698 0.19373165 0.520271 0.90441215 -0.31631798 -0.09386138 0.20227717
0.24612674 -0.07913213 -0.54641485 0.16807121 -0.3173098 -0.8375247 0.7972815 0.13676709
-0.88991547 -0.1878424 0.0198928 -0.9194339 0.008907019 -0.31321177 0.4613866 -0.25370657
-0.21960843 0.2761874 0.32213947 0.15889081 0.8436027 -0.40211833 -0.17100447 -0.6812646
-0.07495461 -0.87806654 1.2503996 -0.7659992 0.08434581 -1.2142599 0.1352047 -0.42255297
-0.4792189 0.11533115 0.52529037 0.11395041 -0.5898191 0.30261964 -0.62672776 0.56154567
0.5801804 0.13823028 1.1683866 0.7210525 -0.28504744 0.17057633 0.31216726 0.43430904
-0.5218178 0.22798893 -0.8661177 0.70642066 -0.030609814 -0.91359603 -0.29169536 -0.9235343
-0.6931346 0.17585504 -0.15829383 -0.26669654 0.02241574 0.53269476 -0.33305055 0.8636048
-0.44674256 0.20081735 0.25338885 0.34368598 0.35252386 -0.19101697 0.064834066 -0.35536554
-0.2850309 1.2504423 0.24472608 1.0363127 -1.528936 -0.08991918 -0.19653028 -1.2424362
-0.2901557 -0.3555049 0.73255527 0.09913404 -0.24538098 -0.33911204 0.27137592 -0.11051628
-0.19992036 0.65417254 0.97172695 0.009839107 -0.7599626 0.023019448 -0.6213811 0.23555282
-0.48896646 -0.2924172 0.1126981 -1.061062 0.6944416 -0.13330968 1.1069324 0.22637746
1.8218473 0.033840083 -0.40308067 -0.4136884 0.7632987 0.2466366 0.28077775 -1.1456724
-0.64759505 0.8039258 0.31772566 -1.1372614 0.57990444 -0.5379079 0.33741525 -1.0809995
-0.34561348 -0.30583563 1.2474427 0.099058695 0.4593665 0.1780982 -0.7451004 0.5966547
-1.2885873 1.0175787 -0.2238953 -0.01673551 -0.58393383 0.014410249 0.78092563 0.72238743
0.020027783 0.13714539 0.108362496 0.5610485 0.7251078 -0.9470038 0.56846315 -0.77378625
00000000: abd3 5e3e 4fe8 e2be 0486 26bf 7b39 66be
00000010: e069 92be 251f 823f 1ba5 933d 0351 34be
00000020: b030 f8be dc4d f63e 6001 003f 062f 83be
00000030: 6f74 423e 148a 4e3e b64c cabe 89fb 9d3e
00000040: 9f98 84be 6759 f43e acd1 963d c04f 0e3e
00000050: 6395 cdbd c3c4 c23c a437 a3be 50c0 3c3f
00000060: 495f 813e beb2 6e3e 29dc f43e 605c 4c3e
00000070: cc36 45bd db05 a2be 3962 31bf 771a 93bd
00000080: a267 ef3e ba35 8e3f 6f4f 773e 3256 87bf
00000090: bc13 523f 0daf 6ebe 0ff9 293f 1af1 983e
000000a0: c6ea 323e 7071 a13f 6cde e33e 1c65 433f
000000b0: e9ed 89bd 3167 73be 6524 df3d 6577 93be
000000c0: 9bfd 73be 577b e13e 3a68 263f c39e 34bf
000000d0: 9833 793e 6272 03be 9846 863d 2599 bfbe
000000e0: e962 f73e d6af 003f 88cc 10bf db8a 8cbc
000000f0: f39d c8be cba6 ff3e ffbb 58bf 8a52 503e
00000100: fb31 dd3e 9c26 24bf 0f24 913e fdfe 8bbf
00000110: 2bf3 7abe a168 86be a4ae 4cbf cb98 f0be
00000120: 3d96 9e3f a338 363f 7e95 cabe f6a8 42bf
00000130: a76b c83e 717d 5b3e cc1a 703f fd6e b23e
00000140: f290 d5be 910e 093f 920b 9c3e bea1 89bd
00000150: 815c 37bf 8733 7f3e 11f9 473f 73c0 0b3e
00000160: ad02 11bf b558 553e ac45 363e defd ddbe
00000170: c251 30bf e989 33bd 3126 6ebe d5c0 4d3e
00000180: 93fc 9a3e f151 0cbe 52ce 1abe 743a df3e
00000190: 668e fb3d 498f 9ebe 069a cb3e da1f 3cbe
000001a0: e0c6 e9bd 3fb2 38bf 9761 463e 7b30 053f
000001b0: 8e87 673f 6ef4 a1be 653a c0bd bf21 4f3e
000001c0: a608 7c3e 0710 a2bd d8e1 0bbf dc1a 2c3e
000001d0: 6e76 a2be 0568 56bf a41a 4c3f ac0c 0c3e
000001e0: 80d1 63bf c259 40be 3af6 a23c 0560 6bbf
000001f0: bfee 113c 4b5d a0be dd3a ec3e d4e5 81be
00000200: 08e1 60be 6f68 8d3e 77ef a43e 46b4 223e
00000210: 59f6 573f 74e2 cdbe cc1b 2fbe 5b67 2ebf
00000220: cd81 99bd f8c8 60bf 180d a03f 8618 44bf
00000230: 7fbd ac3d de6c 9bbf 1a73 0a3e dd58 d8be
00000240: 2e5c f5be bd32 ec3d 6e79 063f d55e e93d
00000250: 62fe 16bf f6f0 9a3e 3b71 20bf 75c1 0f3f
00000260: b486 143f 3d8c 0d3e b18d 953f e696 383f
00000270: bdf1 91be 90ab 2e3e 63d4 9f3e c15d de3e
00000280: da95 05bf ee75 693e e4b9 5dbf fcd7 343f
00000290: 6fc1 fabc 6ee1 69bf 1859 95be be6c 6cbf
000002a0: 4571 31bf 5813 343e c717 22be 738c 88be
000002b0: 37a1 b73c af5e 083f 9a85 aabe 3415 5d3f
000002c0: 71bb e4be 10a3 4d3e 2fbc 813e 9cf7 af3e
000002d0: 027e b43e f499 43be b9c7 843d 79f2 b5be
000002e0: 92ef 91be 7e0e a03f 7999 7a3e e5a5 843f
000002f0: 2db4 c3bf 8c27 b8bd 3c3f 49be 2608 9fbf
00000300: 4a8f 94be bd04 b6be be88 3b3f ca06 cb3d
00000310: 2745 7bbe 18a0 adbe c9f1 8a3e 5c56 e2bd
00000320: ecb7 4cbe da77 273f 19c3 783f 3534 213c
00000330: e98c 42bf 4893 bc3c d512 1fbf c234 713e
00000340: d059 fabe b5b7 95be 43ce e63d e1d0 87bf
00000350: edc6 313f 5582 08be f6af 8d3f 7ecf 673e
00000360: 4b32 e93f e69b 0a3d 9760 cebe f7ce d3be
00000370: 8b67 433f 4e8e 7c3e 1ac2 8f3e 65a5 92bf
00000380: cac8 25bf 15ce 4d3f f0ac a23e c891 91bf
00000390: 9e74 143f 55b4 09bf b1c1 ac3e 315e 8abf
000003a0: 40f4 b0be 7d96 9cbe 34ac 9f3f 49df ca3d
000003b0: 1632 eb3e 605f 363e e6be 3ebf 5dbe 183f
000003c0: 6ef0 a4bf 0540 823f cf44 65be e918 89bc
000003d0: b07c 15bf f718 6c3c beea 473f 62ee 383f
000003e0: 4e11 a43c d76f 0c3e 28ed dd3d e0a0 0f3f
000003f0: aaa0 393f d76e 72bf cd86 113f db16 46bf

arr_5 f4 [50]
1.0690006 -0.17024805 1.1195182 0.26862535 0.5525729 -0.5092155 0.64393145 -0.70268
1.2633715 0.95128673 -0.97444296 1.5107374 -0.5677906 0.8296819 -0.04243509 -0.69316417
0.109647505 -1.0912848 1.3247787 -0.9374002 -0.64366835 -0.73046464 0.68001896 -0.3234643
-1.0049119 -0.600849 0.37016127 -0.8569016 -0.013141053 0.08182822 1.8283464 0.58253366
0.117757894 -0.38815922 -0.5824219 0.9396658 0.031453274 0.7130409 0.15697174 -1.2050235
0.1581766 -1.5676774 0.076721594 0.83554566 0.106013395 0.887233 0.1714782 -0.45532694
0.48244733 0.12698151
00000000: 03d5 883f 8155 2ebe 5f4c 8f3f 4389 893e
00000010: 6b75 0d3f f25b 02bf b1d8 243f d6e2 33bf
00000020: 28b6 a13f 8787 733f 1875 79bf d85f c13f
00000030: ba5a 11bf 0866 543f 6bd0 2dbd 3573 31bf
00000040: df8e e03d 38af 8bbf 5992 a93f 76f9 6fbf
00000050: 73c7 24bf bbff 3abf b915 2e3f 1d9d a5be
00000060: f4a0 80bf 3dd1 19bf c785 bd3e e75d 5bbf
00000070: 924d 57bc 8e95 a73d 4107 ea3f ed20 153f
00000080: 0d2b f13d cebc c6be 9a19 15bf f08d 703f
00000090: 26d5 003d d989 363f 33bd 203e 363e 9abf
000000a0: 0cf9 213e a7a9 c8bf 3620 9d3d 52e6 553f
000000b0: 8d1d d93d b421 633f fb97 2f3e 9d20 e9be
000000c0: 5603 f73e 7107 023e

arr_6 f4 [50, 15]
0.18599768 1.1450233 0.7220165 -0.45672175 -0.54522544 -0.14128786 -0.46088246 -0.72367007
1.1054162 2.0990298 0.42012644 -0.48965716 0.19440612 -0.66339326 0.15906821 -0.1759662
0.2670115 -0.467159 -0.38981596 -0.73365957 0.90731335 0.14039801 -0.36608025 -0.24494809
-0.159794 0.1822411 0.3778704 -0.19022582 -0.5215 -0.1766109 -0.21744674 -2.3690493
0.06924385 -0.29748225 1.2685027 -0.27816507 1.0796376 -0.379378 0.24900587 -1.1263031
-0.04348633 0.5421877 -0.008169211 -0.24592079 -0.14749056 -0.96017516 -0.05395572 -1.2033831
0.70959294 -1.3402592 0.67997223 0.15049954 1.2167083 1.073559 0.21003588 -0.30437985
0.16644146 0.38868022 0.26246476 0.8722927 -0.12859587 -0.26863346 0.4889462 0.44545084
0.68432003 0.9214133 -0.14404699 0.3307073 0.5468548 1.3338087 0.2116583 -0.3053181
-0.56946576 -0.81146336 -0.61574835 -0.774827 -0.81832397 -1.0630414 -0.9672965 -1.1293186
1.0596262 1.0299084 0.87645984 0.3684762 -1.4290781 0.09308726 0.15776753 0.72788537
-0.0104851145 0.6008804 0.3387791 0.8129493 -0.25421825 -0.6265399 0.40700024 -0.86777675
-0.76763386 0.11116694 1.121803 1.9562222 1.3075502 0.21134743 -0.6436888 1.1439793
-0.75020593 -0.82464886 -0.96878237 -1.0939517 -0.763812 -0.19415817 0.19967741 -0.03597906
0.41396716 -0.43975562 0.18584839 -0.42019808 0.8505761 0.3254247 1.0490512 0.42474288
0.4352757 0.02852695 0.6477651 0.06790075 0.036663465 0.023260752 -0.019147454 0.0647344
-0.63711554 -0.23023316 0.1384644 -0.018484935 -0.51771516 -1.0679764 -0.838406 0.038513288
0.2175221 -0.21794814 -0.19447245 -0.092851974 -0.2103103 -0.24251471 0.025913404 -0.9606854
-0.13138531 -0.302536 0.2049688 0.41353238 0.5157595 -0.0693385 -0.6140486 0.13615045
-0.10906227 0.5255133 -0.7034747 -0.78638685 -1.3659484 0.087288395 -0.8678963 0.71808416
0.18716374 -0.12139502 0.7891977 -1.0606923 0.4983108 0.6259509 -0.90866923 -0.42477623
-1.2598147 -0.31561756 -0.0035607112 -0.5045162 -0.40873435 -1.5915343 -2.409878 -0.33404773
-0.91586286 0.21862583 0.061497487 -0.5805502 -0.7174087 -0.75917315 -0.12613791 0.16090056
0.29475945 0.8417991 1.105875 -0.060087696 0.2595139 0.7160358 -0.39300415 0.1411811
0.4021305 1.1416775 -0.32905975 0.30988672 0.15854025 -0.8214718 -0.22898172 -0.8432568
-0.99302894 -1.4802585 0.1265441 -0.9754129 -0.74656063 1.1687068 -0.16060218 -0.26153532
-0.84216857 -0.99042577 -0.628933 -0.32711232 -0.34025046 0.24564344 1.1439776 -0.46536478
-1.759701 -1.194365 -0.47380188 -0.63602304 0.9956622 0.16720727 0.03982392 0.058469024
0.08965175 0.12874338 0.6371562 0.4634666 0.36228833 -0.9722254 -0.04256227 -1.0660902
1.9330636 3.0222564 -0.047688626 0.23193994 1.6195244 -0.50043756 0.3328216 -0.53490645
-0.2783883 0.47597402 -0.8790207 0.37758407 0.2226099 0.2478597 -0.37223995 0.674552
-0.6915024 -0.793119 -0.42888334 0.6091492 -0.38886186 -0.2929184 -0.4583316 -0.3346861
00000000: 2d76 3e3e 2090 923f 13d6 383f 6fd7 e9be
00000010: e593 0bbf c4ad 10be c9f8 ebbe 7142 39bf
00000020: 477e 8d3f 8156 0640 d01a d73e 58b4 fabe
00000030: 6612 473e 24d4 29bf c7e2 223e 7c30 34be
00000040: bbb5 883e 772f efbe f595 c7be 1dd1 3bbf
00000050: b045 683f 7fc4 0f3e df6e bbbe acd3 7abe
00000060: 0aa1 23be 699d 3a3e 3b78 c13e 8fca 42be
00000070: 0681 05bf 7dd9 34be 5caa 5ebe 819e 17c0
00000080: b8cf 8d3d 984f 98be 4c5e a23f a76b 8ebe
00000090: 9131 8a3f d53d c2be 65fb 7e3e b32a 90bf
000000a0: b91e 32bd d0cc 0a3f 28d8 05bc a9d2 7bbe
000000b0: c407 17be 0ace 75bf ac00 5dbd 7508 9abf
000000c0: e2a7 353f 9d8d abbf a912 2e3f 8d1c 1a3e
000000d0: 19bd 9b3f 626a 893f a513 573e add7 9bbe
000000e0: a16f 2a3e 1801 c73e c861 863e 934e 5f3f
000000f0: a3ae 03be 538a 89be 2857 fa3e 2212 e43e
00000100: 992f 2f3f bee1 6b3f 0e81 13be 7852 a93e
00000110: adfe 0b3f 3eba aa3f f4bc 583e a752 9cbe
00000120: 82c8 11bf 10bc 4fbf afa1 1dbf 105b 46bf
00000130: ae7d 51bf be11 88bf bea0 77bf 838d 90bf
00000140: d5a1 873f 0ad4 833f ac5f 603f eaa8 bc3e
00000150: 08ec b6bf 89a4 be3d d08d 213e b256 3a3f
00000160: c2c9 2bbc 4cd3 193f 7474 ad3e 721d 503f
00000170: e528 82be eb64 20bf 5662 d03e 9e26 5ebf
00000180: a783 44bf 7eab e33d 3e97 8f3f 7d65 fa3f
00000190: ce5d a73f 766b 583e cac8 24bf ea6d 923f
000001a0: 7f0d 40bf 301c 53bf 1f02 78bf 9c06 8cbf
000001b0: 2f89 43bf 66d1 46be 3c78 4c3e c75e 13bd
000001c0: 81f3 d33e a627 e1be 0a4f 3e3e 3424 d7be
000001d0: 5bbf 593f 119e a63e 4f47 863f e677 d93e
000001e0: 75dc de3e 5ab1 e93c efd3 253f 8c0f 8b3d
000001f0: 6e2c 163d 558d be3c 1fdb 9cbc 7893 843d
00000200: 011a 23bf 3ec2 6bbe 9dc9 0d3e b86d 97bc
00000210: fb88 04bf 73b3 88bf c7a1 56bf 1cc0 1d3d
00000220: 1dbe 5e3e cc2d 5fbe c923 47be 2d29 bebd
00000230: 955b 57be c755 78be 5948 d43c 7aef 75bf
00000240: df89 06be 00e6 9abe 57e3 513e 84ba d33e
00000250: d108 043f 5801 8ebd 4a32 1dbf 066b 0b3e
00000260: 0a5c dfbd 0a88 063f eb16 34bf a650 49bf
00000270: 66d7 aebf 42c4 b23d 742e 5ebf 5dd4 373f
00000280: daa7 3f3e f49d f8bd dc08 4a3f c4c4 87bf
00000290: 9822 ff3e 513e 203f 8c9e 68bf 457c d9be
000002a0: 9c41 a1bf a098 a1be d25a 69bb f927 01bf
000002b0: a145 d1be 65b7 cbbf 713b 1ac0 4e08 abbe
000002c0: fd75 6abf 73df 5f3e cae4 7b3d f09e 14bf
000002d0: 19a8 37bf 2c59 42bf 4c2a 01be 1ec3 243e
000002e0: b6ea 963e 2580 573f 508d 8d3f 841e 76bd
000002f0: 02df 843e 1f4e 373f d737 c9be c791 103e
00000300: 0de4 cd3e 7d22 923f 857a a8be 79a9 9e3e
00000310: 6058 223e fa4b 52bf 2f7a 6abe addf 57bf
00000320: 2537 7ebf 1c79 bdbf c794 013e a9b4 79bf
00000330: 991e 3fbf 2f98 953f e674 24be f5e7 85be
00000340: 5c98 57bf 8b8c 7dbf c101 21bf 447b a7be
00000350: 4f35 aebe f489 7b3e dc6d 923f 4b44 eebe
00000360: e23d e1bf f4e0 98bf 2996 f2be 68d2 22bf
00000370: b8e3 7e3f 6238 2b3e 681e 233d 377d 6f3d
00000380: 569b b73d 4ed5 033e ab1c 233f 7f4b ed3e
00000390: db7d b93e c4e3 78bf c655 2ebd a575 88bf
000003a0: a16e f73f a66c 4140 2655 43bd aa81 6d3e
000003b0: 934c cf3f ad1c 00bf 9867 aa3e a1ef 08bf
000003c0: e988 8ebe deb2 f33e 8007 61bf b352 c13e
000003d0: daf3 633e efce 7d3e 3c96 bebe 71af 2c3f
000003e0: 4d06 31bf d909 4bbf 9996 dbbe 34f1 1b3f
000003f0: e718 c7be 67f9 95be 71aa eabe fa5b abbe

arr_7 f4 [15]
1.1189947 -0.9854089 -1.158515 -0.8527154 -0.3245537 -0.21588156 -0.555452 -1.1487757
-8.471651 -1.1984555 -0.73384106 -0.91087514 -0.5661167 -1.6353375 -0.4425052
00000000: 383b 8f3f c243 7cbf 384a 94bf 8e4b 5abf
00000010: e72b a6be 0e10 5dbe 1a32 0ebf 150b 93bf
00000020: e28b 07c1 fd66 99bf 02dd 3bbf 1d2f 69bf
00000030: 06ed 10bf bd52 d1bf 0b90 e2be
