initial_global_weights.npz (npz, 168818 bytes, 8 tensors)

arr_0 f4 [78, 200]
0	0x3dd73ce4	0.10509661
1	0xbc2a6a90	-0.010401383
2	0x3d2b0a58	0.04175791
3	0xbdae632b	-0.085150085
4	0x3c075080	0.008258939
5	0xbdc7c43c	-0.097542256
6	0xbdce3967	-0.100695424
7	0xbc7f7650	-0.015592173
8	0xbde33be4	-0.110954076
9	0x3e08ad0c	0.13347262
10	0xbda1e36b	-0.07904705
11	0x3ce092d8	0.02741377
12	0x3ca200a8	0.019775704
13	0xbd85e9d1	-0.065387376
14	0x3dc31a6c	0.09526524
15	0xbd9246c0	-0.07142401
16	0xbcfe2a5c	-0.031026058
17	0xbda875a3	-0.082255624
18	0xbda70597	-0.08155363
19	0x3e02ade0	0.1276164
20	0x3da503a8	0.08057338
21	0xbc83ba40	-0.016080022
22	0xbdd67e50	-0.10473311
23	0xbdc611d2	-0.09671368
24	0x3d801bcc	0.06255302
25	0x3de05bc8	0.10955006
26	0x3d2bb620	0.041921735
27	0xbd88e104	-0.06683543
28	0xbc584790	-0.013200656
29	0xbd81a397	-0.063300304
30	0x3d48f440	0.04906106
31	0x3d70ee68	0.058821112
32	0xbdebd64e	-0.11515485
33	0xbcc5b8bc	-0.02413594
34	0x3c4c9af0	0.012488112
35	0x3d926f42	0.07150127
36	0xbdfec34a	-0.12439592
37	0xbdbd6e9d	-0.092496134
38	0x3e03a5ce	0.12856218
39	0xbd9ce3f9	-0.0766067
40	0xbc246010	-0.010032669
41	0x3e0e01e8	0.13867915
42	0x3da92f5e	0.08260988
43	0xbd0db114	-0.034592703
44	0xbdfa980a	-0.122360304
45	0xbe126704	-0.1429711
46	0xbda9b5d9	-0.08286638
47	0x3ccf3a88	0.025296465
48	0x3cc8f980	0.024533033
49	0xbdd4ad7c	-0.10384652
50	0xbdba0a5a	-0.09084006
51	0xbd6e119e	-0.05812227
52	0x3dd06d48	0.10177094
53	0x3b2f01c0	0.0026703924
54	0x3d21e678	0.039526433
55	0xbdd906d4	-0.105970055
56	0xbdaae946	-0.083452746
57	0x3db8834c	0.09009418
58	0xbdf2dd18	-0.118585765
59	0xbd6357dc	-0.05550371
60	0x3e15c33e	0.1462526
61	0xbdca8fe0	-0.09890723
62	0x3d1e9938	0.03872034
63	0xbdf48dc4	-0.11941102
64	0x3dfe9fbc	0.12432811
65	0xbe0a3ea7	-0.13500462
66	0x3d9245aa	0.071421936
67	0xbdbdc9d4	-0.09267011
68	0x3cb237e8	0.021755174
69	0xbdc4d42a	-0.096107796
70	0xbdea4f6e	-0.11440931
71	0x3d1965f4	0.037450746
72	0x3e0146b4	0.12624627
73	0xbc5e8b60	-0.013583034
74	0x3dc1ebdc	0.09468815
75	0xbdd8694a	-0.10566957
76	0x3d21d7e4	0.03951253
77	0x3dcb8700	0.099378586
78	0xbd9beb8c	-0.076132864
79	0x3db40922	0.087908044
80	0x3d1b37b0	0.037894905
81	0xbdadae48	-0.08480507
82	0x3dfe2578	0.1240949
83	0xbd592350	-0.053012192
84	0x3cf11028	0.02942665
85	0xbdc11935	-0.09428636
86	0x3d8eb342	0.069677845
87	0xbdf43451	-0.11924041
88	0xbd1425a4	-0.03616871
89	0xbb90e940	-0.004422337
90	0xbdaa2f9e	-0.083098635
91	0xbdac4511	-0.08411611
92	0x3dd515f0	0.10404575
93	0xbd1d1d86	-0.038358234
94	0x3d036c14	0.032085493
95	0x3cbe2e40	0.023215413
96	0xbd51fb30	-0.05126494
97	0xbcf2f3f0	-0.029657334
98	0x3c13b240	0.009014666
99	0x3cc79a88	0.024365678
100	0xbdb21464	-0.086952955
101	0xbddb1d54	-0.10698953
102	0xbd4545ac	-0.048162147
103	0xbd9128cf	-0.07087862
104	0xbadd3f80	-0.0016879886
105	0x3d893352	0.06699242
106	0xbdc6dabe	-0.097096905
107	0xbcaeafc0	-0.021324039
108	0x3dd7d2d8	0.10538262
109	0x3a413200	0.00073698163
110	0xbdfbd9ae	-0.122973785
111	0x3df16a58	0.117878616
112	0x3d6cd52c	0.057820484
113	0x3da2f994	0.079577595
114	0x3d29f2e4	0.041491404
115	0xbd8eed58	-0.069788635
116	0x3d2c2f94	0.04203756
117	0xbd437bd2	-0.047725506
118	0x3db30e0c	0.087429136
119	0x3d3c8024	0.046020642
120	0xbd9c7d98	-0.076411426
121	0xbd5095ae	-0.050923996
122	0x3cb03db8	0.021513805
123	0x3d74d9d8	0.059778064
124	0xbde4dba2	-0.11174704
125	0x3de31a50	0.11089003
126	0xbd7196ea	-0.058981813
127	0xbdf332bf	-0.118749134
128	0x3ce74660	0.0282318
129	0xbb3f7dc0	-0.002921924
130	0xbd8eda77	-0.069752626
131	0xbd2e86ae	-0.04260891
132	0x3cb7a788	0.022418752
133	0x3e141fc4	0.14465243
134	0xbe05445e	-0.13014361
135	0x3cebb5a0	0.028773129
136	0x3dbc45f2	0.091930285
137	0xbde051bc	-0.109530896
138	0x3da6b64c	0.08140239
139	0x3bf95d20	0.0076099783
140	0xbdf1dd16	-0.11809747
141	0x3e1509a4	0.14554459
142	0xbd822c04	-0.063560516
143	0xbd4fb052	-0.05070526
144	0xbbccc080	-0.0062485337
145	0x3d9d573e	0.07682656
146	0x3dfd9b90	0.12383187
147	0x3d202b9c	0.03910409
148	0xbc943bc0	-0.018094897
149	0x3e0e8da4	0.13921219
150	0xbe102759	-0.1407751
151	0xbd952017	-0.07281511
152	0x3e1406e6	0.14455757
153	0xbda68de9	-0.08132536
154	0xbe11f501	-0.14253618
155	0x3d40a118	0.04702863
156	0x3d965dc8	0.07342106
157	0x3d782074	0.060577825
158	0x3e008ffa	0.12554923
159	0x3da873b0	0.08225191
160	0xbcffdc68	-0.031233028
161	0xbc5bb510	-0.013409868
162	0xbe09947e	-0.13435552
163	0x3d1a4d44	0.037671342
164	0x3d4739d4	0.048639134
165	0xbd58d3a6	-0.05293622
166	0x3d39b17c	0.045335278
167	0x3b809780	0.00392431
168	0x3de00f3c	0.10940406
169	0x3e123066	0.14276275
170	0xbc4bea80	-0.012446046
171	0xbdb87496	-0.09006612
172	0xbd3e3366	-0.046435736
173	0xbc5a3f90	-0.013320819
174	0x3dd11860	0.10209727
175	0xbdb523a0	-0.088446856
176	0xbd8f2384	-0.06989196
177	0x3d849604	0.06473926
178	0xbd4be5e6	-0.049779795
179	0x3dc73bd4	0.09728208
180	0xbd94ebb2	-0.07271518
181	0xbd939982	-0.07207014
182	0xbd9eaceb	-0.07747825
183	0x3c368010	0.011138931
184	0xbe06b065	-0.13153227
185	0x3d656330	0.056002796
186	0x39494c00	0.00019197166
187	0x3be49d20	0.0069767386
188	0x3d98d54c	0.07462558
189	0xbe045cdb	-0.12926047
190	0x3deafd44	0.11474088
191	0x3caa5c68	0.020796016
192	0xbd26b2c0	-0.040697813
193	0xbcf41454	-0.02979485
194	0x3dedfd14	0.116205364
195	0xbcbdf8a4	-0.02318985
196	0x3de892ac	0.113561004
197	0xbd2723fa	-0.040805794
198	0x3d54503c	0.05183433
199	0xbde70798	-0.11280745
200	0x3bb4ee00	0.005521536
201	0x3d43bd18	0.047787756
202	0xbd8a5378	-0.06754202
203	0xbd12f6ee	-0.03588002
204	0xbd8b8ede	-0.06814359
205	0xbb90eb60	-0.00442259
206	0xbe069902	-0.13144305
207	0x3e0ec7e4	0.1394344
208	0xbd6ab504	-0.057301536
209	0xbd7d8bfc	-0.061901078
210	0x3e07ba26	0.13254604
211	0x3dbd9344	0.09256604
212	0xbe00e53e	-0.12587449
213	0x3ce617c0	0.028087497
214	0xbd7aa2a2	-0.061190255
215	0x3dc49924	0.09599522
216	0x3dc4f9b2	0.09617938
217	0xbde018a4	-0.109422
218	0x3dd5ce50	0.104397416
219	0x3e143a18	0.14475286
220	0x3e0cc3ec	0.13746613
221	0xbda2fd99	-0.07958526
222	0x3d8bedc6	0.06832461
223	0xbdf52096	-0.11969106
224	0xbd82f940	-0.06395197
225	0x3dd06aee	0.10176645
226	0xbd0c7e4c	-0.034300134
227	0x3c3841a0	0.011246115
228	0x3d8e6178	0.069521844
229	0x3b9c1420	0.0047631413
230	0xbdee9881	-0.116501816
231	0xbdc55495	-0.09635273
232	0xbc1796e0	-0.00925228
233	0x3df23e6c	0.11828312
234	0x3e04417e	0.12915608
235	0xbdd95620	-0.1061213
236	0x3da9e1ec	0.08295044
237	0xbda0e75b	-0.078566276
238	0x3d495c54	0.049160317
239	0x3d46bdb0	0.048520744
240	0x3bd6b440	0.006552249
241	0xbe0e620e	-0.13904592
242	0x3d7389f8	0.05945775
243	0x3dbe4f34	0.092924505
244	0x3e145854	0.1448682
245	0xbd8d9674	-0.06913462
246	0x3ce09680	0.027415514
247	0x3e12a784	0.14321715
248	0x3dc43384	0.09580138
249	0xbd8d9171	-0.06912506
250	0x3db15154	0.0865809
251	0x3e15d90c	0.14633578
252	0x3dcd6834	0.10029641
253	0xbcfd8270	-0.030945987
254	0x3d5c4b64	0.053782836
255	0xbd8e62dd	-0.069524504

arr_1 f4 [200]
0	0x00000000	0.0
1	0x00000000	0.0
2	0x00000000	0.0
3	0x00000000	0.0
4	0x00000000	0.0
5	0x00000000	0.0
6	0x00000000	0.0
7	0x00000000	0.0
8	0x00000000	0.0
9	0x00000000	0.0
10	0x00000000	0.0
11	0x00000000	0.0
12	0x00000000	0.0
13	0x00000000	0.0
14	0x00000000	0.0
15	0x00000000	0.0
16	0x00000000	0.0
17	0x00000000	0.0
18	0x00000000	0.0
19	0x00000000	0.0
20	0x00000000	0.0
21	0x00000000	0.0
22	0x00000000	0.0
23	0x00000000	0.0
24	0x00000000	0.0
25	0x00000000	0.0
26	0x00000000	0.0
27	0x00000000	0.0
28	0x00000000	0.0
29	0x00000000	0.0
30	0x00000000	0.0
31	0x00000000	0.0
32	0x00000000	0.0
33	0x00000000	0.0
34	0x00000000	0.0
35	0x00000000	0.0
36	0x00000000	0.0
37	0x00000000	0.0
38	0x00000000	0.0
39	0x00000000	0.0
40	0x00000000	0.0
41	0x00000000	0.0
42	0x00000000	0.0
43	0x00000000	0.0
44	0x00000000	0.0
45	0x00000000	0.0
46	0x00000000	0.0
47	0x00000000	0.0
48	0x00000000	0.0
49	0x00000000	0.0
50	0x00000000	0.0
51	0x00000000	0.0
52	0x00000000	0.0
53	0x00000000	0.0
54	0x00000000	0.0
55	0x00000000	0.0
56	0x00000000	0.0
57	0x00000000	0.0
58	0x00000000	0.0
59	0x00000000	0.0
60	0x00000000	0.0
61	0x00000000	0.0
62	0x00000000	0.0
63	0x00000000	0.0
64	0x00000000	0.0
65	0x00000000	0.0
66	0x00000000	0.0
67	0x00000000	0.0
68	0x00000000	0.0
69	0x00000000	0.0
70	0x00000000	0.0
71	0x00000000	0.0
72	0x00000000	0.0
73	0x00000000	0.0
74	0x00000000	0.0
75	0x00000000	0.0
76	0x00000000	0.0
77	0x00000000	0.0
78	0x00000000	0.0
79	0x00000000	0.0
80	0x00000000	0.0
81	0x00000000	0.0
82	0x00000000	0.0
83	0x00000000	0.0
84	0x00000000	0.0
85	0x00000000	0.0
86	0x00000000	0.0
87	0x00000000	0.0
88	0x00000000	0.0
89	0x00000000	0.0
90	0x00000000	0.0
91	0x00000000	0.0
92	0x00000000	0.0
93	0x00000000	0.0
94	0x00000000	0.0
95	0x00000000	0.0
96	0x00000000	0.0
97	0x00000000	0.0
98	0x00000000	0.0
99	0x00000000	0.0
100	0x00000000	0.0
101	0x00000000	0.0
102	0x00000000	0.0
103	0x00000000	0.0
104	0x00000000	0.0
105	0x00000000	0.0
106	0x00000000	0.0
107	0x00000000	0.0
108	0x00000000	0.0
109	0x00000000	0.0
110	0x00000000	0.0
111	0x00000000	0.0
112	0x00000000	0.0
113	0x00000000	0.0
114	0x00000000	0.0
115	0x00000000	0.0
116	0x00000000	0.0
117	0x00000000	0.0
118	0x00000000	0.0
119	0x00000000	0.0
120	0x00000000	0.0
121	0x00000000	0.0
122	0x00000000	0.0
123	0x00000000	0.0
124	0x00000000	0.0
125	0x00000000	0.0
126	0x00000000	0.0
127	0x00000000	0.0
128	0x00000000	0.0
129	0x00000000	0.0
130	0x00000000	0.0
131	0x00000000	0.0
132	0x00000000	0.0
133	0x00000000	0.0
134	0x00000000	0.0
135	0x00000000	0.0
136	0x00000000	0.0
137	0x00000000	0.0
138	0x00000000	0.0
139	0x00000000	0.0
140	0x00000000	0.0
141	0x00000000	0.0
142	0x00000000	0.0
143	0x00000000	0.0
144	0x00000000	0.0
145	0x00000000	0.0
146	0x00000000	0.0
147	0x00000000	0.0
148	0x00000000	0.0
149	0x00000000	0.0
150	0x00000000	0.0
151	0x00000000	0.0
152	0x00000000	0.0
153	0x00000000	0.0
154	0x00000000	0.0
155	0x00000000	0.0
156	0x00000000	0.0
157	0x00000000	0.0
158	0x00000000	0.0
159	0x00000000	0.0
160	0x00000000	0.0
161	0x00000000	0.0
162	0x00000000	0.0
163	0x00000000	0.0
164	0x00000000	0.0
165	0x00000000	0.0
166	0x00000000	0.0
167	0x00000000	0.0
168	0x00000000	0.0
169	0x00000000	0.0
170	0x00000000	0.0
171	0x00000000	0.0
172	0x00000000	0.0
173	0x00000000	0.0
174	0x00000000	0.0
175	0x00000000	0.0
176	0x00000000	0.0
177	0x00000000	0.0
178	0x00000000	0.0
179	0x00000000	0.0
180	0x00000000	0.0
181	0x00000000	0.0
182	0x00000000	0.0
183	0x00000000	0.0
184	0x00000000	0.0
185	0x00000000	0.0
186	0x00000000	0.0
187	0x00000000	0.0
188	0x00000000	0.0
189	0x00000000	0.0
190	0x00000000	0.0
191	0x00000000	0.0
192	0x00000000	0.0
193	0x00000000	0.0
194	0x00000000	0.0
195	0x00000000	0.0
196	0x00000000	0.0
197	0x00000000	0.0
198	0x00000000	0.0
199	0x00000000	0.0

arr_2 f4 [200, 100]
0	0xbdb6c9b6	-0.08925192
1	0x3cf77130	0.03020534
2	0x3dc20a80	0.09474659
3	0xbde97a7c	-0.11400315
4	0xbdd9a0e4	-0.106263906
5	0x3dadf1d6	0.08493392
6	0xbdaf798a	-0.085681036
7	0x3d9ac3d4	0.075568825
8	0xbdf69242	-0.12039615
9	0xbd91ff75	-0.07128803
10	0x3e0aa69b	0.13540117
11	0xbc58bb70	-0.013228282
12	0xbd5ab618	-0.053396314
13	0x3d1eb204	0.038743988
14	0xbdbcf04c	-0.092255205
15	0xbd0b232a	-0.033969082
16	0x3e0df5ad	0.13863249
17	0xbdfd6fca	-0.12374838
18	0x3cb8bb88	0.02255036
19	0xbbd71e60	-0.0065649003
20	0x3db85e72	0.09002389
21	0x3d83334e	0.0640627
22	0xbd8b415b	-0.06799575
23	0xbdb1cff2	-0.086822405
24	0x3caa2e90	0.020774156
25	0xbdcaef3e	-0.09908913
26	0x3db06cc4	0.086144954
27	0x3cea8028	0.028625563
28	0x3dee138a	0.116248205
29	0x3d5ce588	0.053929836
30	0x3de0da6e	0.10979162
31	0xbd101e4a	-0.035185136
32	0x3cd0ebf0	0.025503129
33	0xbc753390	-0.014965907
34	0x3d6ad858	0.057335228
35	0x3d4c81c4	0.04992844
36	0xbdf52b35	-0.11971132
37	0x3d62ed90	0.05540234
38	0x3e0a9ab3	0.13535576
39	0xbd6ab810	-0.057304442
40	0xbc582930	-0.013193414
41	0x3c999990	0.018749982
42	0x3c35c7d0	0.011095002
43	0x3af0c980	0.0018370599
44	0x3dc15ab6	0.0944113
45	0xbd9c223d	-0.07623718
46	0xbd82cf92	-0.06387247
47	0x3dc77786	0.09739594
48	0x3ce625a0	0.028094113
49	0x3df9b406	0.1219254
50	0x3dca3e02	0.09875108
51	0xbcceac34	-0.025228597
52	0x3c4001d0	0.011719182
53	0x3de5f36a	0.11228068
54	0x3d5d13a0	0.053973794
55	0xbc8721c8	-0.0164956
56	0xbcfc7c10	-0.030820876
57	0x3e0231c5	0.12714298
58	0xbdc42e8c	-0.095791906
59	0x3dbde002	0.09271242
60	0xbdeca839	-0.115555234
61	0x3bd10500	0.00637877
62	0x3d380830	0.044929683
63	0xbde0710b	-0.10959061
64	0x3d8fb768	0.07017404
65	0xbd99c52f	-0.07508313
66	0x3dc3a3c2	0.09552719
67	0xbb462880	-0.0030236542
68	0xbc5f0b30	-0.013613507
69	0x3d82713a	0.063692525
70	0x3dc88dae	0.09792648
71	0xbddeb00c	-0.10873422
72	0x3c5bb170	0.013409004
73	0x3e0da5af	0.13832735
74	0x3dd6e29c	0.10492441
75	0x3c236b00	0.009974241
76	0x3d5c6034	0.053802684
77	0x3d6fbf88	0.058532268
78	0x3dda7260	0.106663465
79	0xbca4f0bc	-0.020134322
80	0x3d135594	0.035970286
81	0x3d9b2f42	0.07577373
82	0xbda3ab8b	-0.079917036
83	0xbc0267d0	-0.007959321
84	0xbbf4a040	-0.0074653924
85	0xbdc8e76a	-0.09809764
86	0xbddb7a52	-0.1071669
87	0xbd3251e6	-0.043535136
88	0x3c81fd70	0.015867919
89	0x3d2f6d58	0.042828888
90	0x3d69bf28	0.057067066
91	0xbe01f5ab	-0.12691371
92	0x3dd8c6d2	0.10584797
93	0x3deccfd6	0.11563079
94	0x3de4cfc6	0.11172442
95	0x3b96b5c0	0.004599303
96	0xbdc3bfe2	-0.09558083
97	0x3d3ccd4c	0.046094224
98	0x3ce79268	0.028268054
99	0xbd517334	-0.051135257
100	0x3d94e27e	0.072697625
101	0x3e0aff5f	0.13573979
102	0xbd23a49e	-0.039951913
103	0xbdcf5066	-0.10122757
104	0x3db9edcc	0.09078559
105	0x3dd89ea4	0.10577133
106	0xbd2fd2a4	-0.042925492
107	0x3c3ae2b0	0.011406586
108	0x3cde2d48	0.027121201
109	0xbda948ea	-0.082658604
110	0xbddac462	-0.10681988
111	0xbd95de77	-0.073178224
112	0xbdfb4ebc	-0.12270877
113	0x3c420b60	0.011843532
114	0x3ddb7860	0.10716319
115	0x3ca24258	0.019807026
116	0xbdadf776	-0.08494465
117	0xbaee0d80	-0.0018161982
118	0x3db3c700	0.087781906
119	0x3dca41fc	0.09875867
120	0x3daded42	0.08492519
121	0x3df895ce	0.12137948
122	0xbc7126b0	-0.0147186965
123	0xbd103764	-0.035209075
124	0x3d90cdf4	0.070705324
125	0x3d88bcac	0.06676611
126	0x3b35ba80	0.002772957
127	0x3dcd0ce8	0.10012227
128	0x3df98d82	0.121851936
129	0x3d9ae480	0.07563114
130	0xbe071f8b	-0.13195626
131	0xbd8d9d4c	-0.069147676
132	0x3dfa6d0e	0.12227832
133	0xbc8a3058	-0.016868755
134	0x3df0b14a	0.11752565
135	0x3d0492e8	0.032366663
136	0xbd8d3050	-0.068939805
137	0xbdd960fd	-0.10614202
138	0xbdda5bc8	-0.10662037
139	0x3c81a1a8	0.015824154
140	0xbd3f313a	-0.046677805
141	0xbe09c024	-0.13452202
142	0xbcd294b0	-0.025705665
143	0xbdd6a61a	-0.104809
144	0xbb8def20	-0.0043314844
145	0x3de59822	0.11210658
146	0x3e00647f	0.12538336
147	0xbe01909f	-0.12652825
148	0x3cb37e58	0.021910831
149	0xbd3e539e	-0.046466462
150	0x3c9adb18	0.0189033
151	0xbdda8102	-0.106691375
152	0xbde7f456	-0.113259
153	0xbd947379	-0.07248587
154	0x3dc1b710	0.094587445
155	0xbd8e2200	-0.06940079
156	0x3d9421aa	0.072329834
157	0x3cf45760	0.02982682
158	0x3dbdba8c	0.092640966
159	0x3d543840	0.051811457
160	0x3cba5370	0.022744864
161	0x3c1b2060	0.009468168
162	0xbe071755	-0.13192494
163	0x3d9047ac	0.0704492
164	0x3d031558	0.032002777
165	0x3e006dbd	0.12541862
166	0xbe0ac116	-0.13550219
167	0x3de34582	0.11097242
168	0xbdd74cfa	-0.10512729
169	0xbe0d2b76	-0.1378611
170	0xbdba7b93	-0.09105601
171	0x3df6f07e	0.12057589
172	0xbdd9d565	-0.10636405
173	0xbddcd17f	-0.10782146
174	0xbdec4ceb	-0.115381084
175	0x3c996c08	0.018728271
176	0xbe0edfdc	-0.13952583
177	0x3dd65242	0.10464908
178	0x3c39c450	0.011338308
179	0x3c6930a0	0.0142327845
180	0x3d8aa008	0.06768805
181	0x3b4bf9c0	0.0031124204
182	0x3d3c0530	0.045903385
183	0x3db2b86e	0.087265834
184	0xbdceebd4	-0.101035744
185	0x3cc45dd8	0.02397053
186	0x3d59a498	0.053135484
187	0xbe067efe	-0.13134381
188	0xbd952702	-0.07282831
189	0xbda67e15	-0.08129517
190	0x3dc4e2ae	0.09613548
191	0x3c3adb30	0.011404797
192	0xbe0a240e	-0.13490316
193	0xbd2c8cd2	-0.042126484
194	0x3cf39088	0.029732004
195	0xbd7928ec	-0.06083004
196	0xbdf897a6	-0.121383
197	0xba36a100	-0.000696674
198	0xbe0d0d66	-0.13774642
199	0x3d99a1b0	0.075015426
200	0xbcb4f0bc	-0.022087447
201	0xbdf13b0d	-0.11778841
202	0xbe05c182	-0.13062099
203	0x3dbfa40c	0.09357461
204	0x3d8715fa	0.065959886
205	0x3da77d82	0.081782356
206	0xbde9fd83	-0.11425307
207	0x3d17297c	0.036904797
208	0x3e015197	0.1262878
209	0xbdd28688	-0.10279566
210	0xbdbd4d9a	-0.09243317
211	0xba1eb400	-0.0006054044
212	0x3caa4c18	0.020788237
213	0x3d99c688	0.0750857
214	0xbcad0cf4	-0.02112434
215	0x3d9d8c2c	0.07692751
216	0xbd35da80	-0.04439783
217	0xbdf755f8	-0.12076944
218	0x3d90338e	0.07041083
219	0xbdcab5b4	-0.09897938
220	0x3dc504be	0.09620045
221	0xbd08d5f8	-0.03340718
222	0xbd759060	-0.05995214
223	0xbd8b08c5	-0.06788782
224	0x3d60a0c0	0.054840803
225	0xbd8d8a19	-0.06911106
226	0x3e013783	0.12618832
227	0x3df124da	0.11774607
228	0x3ddecb2a	0.10878594
229	0xbcb2992c	-0.021801554
230	0xbdcfb446	-0.10141806
231	0x3d5f8088	0.054565936
232	0xbd6e5d56	-0.05819448
233	0x3ddd4b02	0.10805322
234	0xbd07292e	-0.032998256
235	0xbd9cc872	-0.076554194
236	0xbcd94518	-0.026522204
237	0xbd9dada2	-0.076991335
238	0x3e0acecb	0.13555448
239	0xbdcd5688	-0.1002627
240	0x3d5ff580	0.054677486
241	0x3bb53500	0.0055299997
242	0x3dd70344	0.1049867
243	0xbe0310f8	-0.12799442
244	0x3da2cc46	0.07949118
245	0x3d13cb18	0.036082357
246	0xbc846958	-0.016163513
247	0x3bdfb9a0	0.006827548
248	0xbdc653a2	-0.096839204
249	0x3e0a9c5d	0.1353621
250	0x3d748474	0.05969663
251	0x3dd04b8c	0.101706594
252	0x3ca5ffc8	0.020263568
253	0x3d523144	0.051316515
254	0x3dce4ad6	0.100728676
255	0x3d9cbb8e	0.07652961

arr_3 f4 [100]
0	0x00000000	0.0
1	0x00000000	0.0
2	0x00000000	0.0
3	0x00000000	0.0
4	0x00000000	0.0
5	0x00000000	0.0
6	0x00000000	0.0
7	0x00000000	0.0
8	0x00000000	0.0
9	0x00000000	0.0
10	0x00000000	0.0
11	0x00000000	0.0
12	0x00000000	0.0
13	0x00000000	0.0
14	0x00000000	0.0
15	0x00000000	0.0
16	0x00000000	0.0
17	0x00000000	0.0
18	0x00000000	0.0
19	0x00000000	0.0
20	0x00000000	0.0
21	0x00000000	0.0
22	0x00000000	0.0
23	0x00000000	0.0
24	0x00000000	0.0
25	0x00000000	0.0
26	0x00000000	0.0
27	0x00000000	0.0
28	0x00000000	0.0
29	0x00000000	0.0
30	0x00000000	0.0
31	0x00000000	0.0
32	0x00000000	0.0
33	0x00000000	0.0
34	0x00000000	0.0
35	0x00000000	0.0
36	0x00000000	0.0
37	0x00000000	0.0
38	0x00000000	0.0
39	0x00000000	0.0
40	0x00000000	0.0
41	0x00000000	0.0
42	0x00000000	0.0
43	0x00000000	0.0
44	0x00000000	0.0
45	0x00000000	0.0
46	0x00000000	0.0
47	0x00000000	0.0
48	0x00000000	0.0
49	0x00000000	0.0
50	0x00000000	0.0
51	0x00000000	0.0
52	0x00000000	0.0
53	0x00000000	0.0
54	0x00000000	0.0
55	0x00000000	0.0
56	0x00000000	0.0
57	0x00000000	0.0
58	0x00000000	0.0
59	0x00000000	0.0
60	0x00000000	0.0
61	0x00000000	0.0
62	0x00000000	0.0
63	0x00000000	0.0
64	0x00000000	0.0
65	0x00000000	0.0
66	0x00000000	0.0
67	0x00000000	0.0
68	0x00000000	0.0
69	0x00000000	0.0
70	0x00000000	0.0
71	0x00000000	0.0
72	0x00000000	0.0
73	0x00000000	0.0
74	0x00000000	0.0
75	0x00000000	0.0
76	0x00000000	0.0
77	0x00000000	0.0
78	0x00000000	0.0
79	0x00000000	0.0
80	0x00000000	0.0
81	0x00000000	0.0
82	0x00000000	0.0
83	0x00000000	0.0
84	0x00000000	0.0
85	0x00000000	0.0
86	0x00000000	0.0
87	0x00000000	0.0
88	0x00000000	0.0
89	0x00000000	0.0
90	0x00000000	0.0
91	0x00000000	0.0
92	0x00000000	0.0
93	0x00000000	0.0
94	0x00000000	0.0
95	0x00000000	0.0
96	0x00000000	0.0
97	0x00000000	0.0
98	0x00000000	0.0
99	0x00000000	0.0

arr_4 f4 [100, 50]
0	0x3de73632	0.11289634
1	0xbe23a463	-0.15980677
2	0x3db45832	0.088058844
3	0xbcff8e50	-0.03119579
4	0x3d8480a2	0.06469847
5	0x3ded79e6	0.11595516
6	0x3d8c8862	0.068619505
7	0x3dad0432	0.08448066
8	0xbe32cf43	-0.17461877
9	0x3e45ce67	0.19317017
10	0x3e1a8461	0.15089561
11	0xbe23b093	-0.15985326
12	0xbbd624c0	-0.0065351427
13	0xbe3fd477	-0.18733393
14	0xbd29cba8	-0.041453987
15	0xbe10abb3	-0.14127998
16	0x3e4c8909	0.1997415
17	0x3d97b1a2	0.07406928
18	0x3dd30c12	0.103050366
19	0x3de8b94e	0.11363469
20	0x3d4d8f5c	0.050185546
21	0x3decb0a6	0.115571305
22	0x3dd9a8c2	0.10627891
23	0x3e1975b7	0.14986311
24	0x3e1956f9	0.14974584
25	0x3dd8e19a	0.10589905
26	0x3e33c1f7	0.1755446
27	0x3e3a7e87	0.18212329
28	0x3cc313d0	0.023813158
29	0x3d2e24c0	0.042515516
30	0x3d1d3bcc	0.038387105
31	0xbd5c7728	-0.053824574
32	0x3ce62000	0.02809143
33	0xbd07484c	-0.033027932
34	0x3d7d5774	0.06185098
35	0xbe49f03a	-0.19720545
36	0x3dd2eeda	0.102994636
37	0x3ce67fe8	0.028137162
38	0x3def7f92	0.11694254
39	0xbc7058d0	-0.014669612
40	0xbdb3e220	-0.08783364
41	0x3e22161d	0.15828748
42	0x3e1051c1	0.14093687
43	0x3e278329	0.16358627
44	0x3dd3cc02	0.10341646
45	0xbcb47d18	-0.022032306
46	0x3c875668	0.016520694
47	0xbbe86c00	-0.0070929527
48	0x3d362900	0.044472694
49	0x3dc2fe72	0.09521188
50	0x3d275958	0.04085669
51	0xbd0a9cf4	-0.03384109
52	0x3d0be968	0.03415814
53	0xbe47c8b7	-0.1951016
54	0xbe0eea36	-0.13956532
55	0xbe4322a0	-0.19056177
56	0xbddea6c7	-0.10871654
57	0xbe09fa80	-0.13474464
58	0xbcc51430	-0.024057478
59	0xbd4f2acc	-0.050577924
60	0xbe0c582a	-0.13705507
61	0x3e0d4f8d	0.13799877
62	0x3b001c00	0.001954794
63	0x3daeb2da	0.08530207
64	0xbdc2c287	-0.095097594
65	0xbe265620	-0.16243792
66	0x3e2b5d27	0.16734754
67	0xbe1f201d	-0.15539594
68	0xbe39b533	-0.18135528
69	0xbe0dca30	-0.1384666
70	0xbe3af0c0	-0.18255901
71	0xbcba8e98	-0.022773072
72	0xbdba03d3	-0.09082761
73	0x3da394b2	0.07987346
74	0xbdceddd3	-0.10100903
75	0xbdc0b60d	-0.094097234
76	0xbd092928	-0.033486515
77	0xbdc13f3a	-0.09435888
78	0xbdbbef40	-0.09176493
79	0x3dab9842	0.0837865
80	0xbd8934d4	-0.06699529
81	0x3d94ea9a	0.07271309
82	0xbd9e1ce7	-0.077203564
83	0x3d83ae72	0.06429757
84	0x3d6c645c	0.057712898
85	0x3daef1a6	0.085421845
86	0x3ca8c000	0.020599365
87	0xbcc89298	-0.024483964
88	0xbb8ea940	-0.0043536723
89	0x3de78a1a	0.11305638
90	0xbdb050ed	-0.08609185
91	0xbdb9bf60	-0.09069705
92	0xbe19b9e6	-0.15012321
93	0x3e473e69	0.19457401
94	0xbe2f71da	-0.17133275
95	0xbe23b123	-0.15985541
96	0xbc5d3730	-0.013501927
97	0x3e183e1d	0.14867444
98	0xbe047590	-0.12935472
99	0xbcdbe250	-0.026841313
100	0x3e3b0493	0.18263464
101	0xbe3b04ca	-0.18263546
102	0x3d5d8c84	0.054089084
103	0xbe2df637	-0.16988455
104	0x3c3a6900	0.011377573
105	0xbe0f3133	-0.13983612
106	0x3d91cdce	0.07119332
107	0xbdfd4b87	-0.12367921
108	0xbac5cb00	-0.0015090406
109	0x3e3ef77d	0.18649097
110	0x3e2e5041	0.17022802
111	0xbe25bc9a	-0.16185227
112	0xbe0e60ed	-0.13904162
113	0xbc0a9ea0	-0.008460671
114	0x3dbb5ff2	0.091491595
115	0x3e17d80d	0.1482851
116	0x3e38f6fd	0.18062969
117	0xbe38308a	-0.17987266
118	0xbd94f10c	-0.072725385
119	0x3d9b449a	0.07581444
120	0xbb529800	-0.0032134056
121	0xbc529460	-0.012852758
122	0xbc00f2a0	-0.007870346
123	0xbdb7743a	-0.08957715
124	0x3e095777	0.13412271
125	0x3dae79c6	0.0851932
126	0x3d078168	0.033082396
127	0xbe21db3d	-0.15806289
128	0xbdd47bd3	-0.1037518
129	0x3c234a60	0.009966463
130	0x3d9cc992	0.07655634
131	0xbe37e1b0	-0.17957187
132	0x3e472471	0.19447495
133	0xbe190dd6	-0.14946684
134	0xbe391fb7	-0.18078505
135	0xbe4bb127	-0.19891797
136	0xbe043c84	-0.1291371
137	0x3cda17b0	0.026622623
138	0x3cd86350	0.026414543
139	0xbcfe0000	-0.03100586
140	0x3e47f469	0.19526829
141	0xbe3c8e4a	-0.18413654
142	0xbe0d1ca3	-0.13780455
143	0x3ddd776e	0.10813795
144	0xbd55e734	-0.052222446
145	0xbe111790	-0.14169145
146	0x3dfa82ee	0.12232004
147	0x3da1bbda	0.07897158
148	0xbdfe26a7	-0.12409716
149	0x3e4c1789	0.19930853
150	0xbdaaa6ad	-0.08332572
151	0x3e2ed309	0.17072691
152	0x3e0461c1	0.12927915
153	0x3e2b9de3	0.16759448
154	0x391ef400	0.00015158951
155	0x3d310900	0.043221474
156	0xbc0d1030	-0.008609816
157	0x3dc9fa26	0.09862165
158	0x3dd1bb12	0.10240759
159	0x3de7f4e2	0.113260046
160	0x3d9b9b4e	0.075979814
161	0xbd04b800	-0.03240204
162	0x3dc6075a	0.09669371
163	0x3e032cdd	0.12810083
164	0x3d3df50c	0.046376273
165	0xbe0fd1b3	-0.14044838
166	0xbd84f5da	-0.06492205
167	0xbe1ce433	-0.15321426
168	0xbe47c097	-0.19507061
169	0x3d07fd18	0.033200353
170	0xbd9f692d	-0.077837326
171	0xbd0e9b58	-0.034816116
172	0xbe4a38e3	-0.19748263
173	0x3dad51a2	0.08462836
174	0xbd70e318	-0.058810323
175	0xbe3dfd63	-0.1855369
176	0xbe0a0d50	-0.13481641
177	0x3de5f61a	0.11228581
178	0xbcd46250	-0.025925785
179	0x3e3cbdfd	0.1843185
180	0x3e441ee7	0.19152413
181	0x3d575e0c	0.052579924
182	0xbd19e3b4	-0.03757067
183	0x3d756834	0.05991383
184	0xbbb80e00	-0.0056169033
185	0x3dc7767a	0.097393945
186	0x3e48c2c3	0.19605546
187	0xbe032936	-0.1280869
188	0xbe1ab08d	-0.15106411
189	0x3e3bf7fd	0.18356319
190	0xbac87980	-0.0015294999
191	0xbdcdbd2d	-0.10045848
192	0x3c2c2cd0	0.010508731
193	0xbdb52fc0	-0.08846998
194	0xbc9ba3e8	-0.018999055
195	0x3e301e61	0.17199089
196	0x3bcb50c0	0.0062046945
197	0xbd45c6d8	-0.048285335
198	0x3e1b526d	0.15168162
199	0xbc3510d0	-0.011051372
200	0xbc2a1530	-0.010381028
201	0x3e1b3d53	0.15160112
202	0x3dc21a3a	0.094776586
203	0x3e1ae2fd	0.15125652
204	0x3d7f94c4	0.062397733
205	0x3d7e190c	0.062035605
206	0xbe075584	-0.13216215
207	0x3b57a0c0	0.003290221
208	0xbdc35360	-0.09537387
209	0xbe10fc96	-0.14158854
210	0x3dc01db2	0.09380664
211	0x3e23433d	0.15943618
212	0xbde83e1a	-0.1133997
213	0x3e0ba7d7	0.13638245
214	0x3dab9d72	0.0837964
215	0xbe298a46	-0.16556653
216	0x3e4452d3	0.1917222
217	0xbd085c28	-0.033291012
218	0xbde7487a	-0.11293121
219	0xbe34c4ed	-0.17653246
220	0x3dc834c2	0.09775688
221	0xbda18fb3	-0.078887366
222	0xbdb8a7c0	-0.09016371
223	0xbdad160d	-0.084514715
224	0x3db5a0d2	0.08868565
225	0xbdb9fda7	-0.090815835
226	0x3e38d6cd	0.1805069
227	0xbe1d1d46	-0.15343198
228	0xbdb401c7	-0.087894015
229	0x3dea1a32	0.114307776
230	0xbcc7a250	-0.024369389
231	0xbde97cad	-0.11400733
232	0x3d661a0c	0.056177184
233	0x3e31e191	0.17371203
234	0xbd917a4c	-0.071034044
235	0x39e7fa00	0.00044246018
236	0x3e205a51	0.15659453
237	0xbd847b14	-0.06468788
238	0xbd8fd0cc	-0.07022247
239	0xbde5cee7	-0.11221104
240	0xbe2e1297	-0.16999279
241	0x3e2ec217	0.17066227
242	0xbe30074d	-0.17190285
243	0x3de5b752	0.11216606
244	0xbdf1b2fa	-0.11801715
245	0x3d96a5da	0.073558524
246	0xbae78300	-0.0017662942
247	0x3dc4877a	0.095961526
248	0xbe1ca44a	-0.15297046
249	0xbdcc3ed3	-0.0997292
250	0xbdb719da	-0.08940478
251	0xbe21956d	-0.15779658
252	0x3d70fea4	0.058836594
253	0x3d206e8c	0.039167926
254	0x3de40102	0.11133005
255	0xbe11cdb6	-0.14238629

arr_5 f4 [50]
0	0x00000000	0.0
1	0x00000000	0.0
2	0x00000000	0.0
3	0x00000000	0.0
4	0x00000000	0.0
5	0x00000000	0.0
6	0x00000000	0.0
7	0x00000000	0.0
8	0x00000000	0.0
9	0x00000000	0.0
10	0x00000000	0.0
11	0x00000000	0.0
12	0x00000000	0.0
13	0x00000000	0.0
14	0x00000000	0.0
15	0x00000000	0.0
16	0x00000000	0.0
17	0x00000000	0.0
18	0x00000000	0.0
19	0x00000000	0.0
20	0x00000000	0.0
21	0x00000000	0.0
22	0x00000000	0.0
23	0x00000000	0.0
24	0x00000000	0.0
25	0x00000000	0.0
26	0x00000000	0.0
27	0x00000000	0.0
28	0x00000000	0.0
29	0x00000000	0.0
30	0x00000000	0.0
31	0x00000000	0.0
32	0x00000000	0.0
33	0x00000000	0.0
34	0x00000000	0.0
35	0x00000000	0.0
36	0x00000000	0.0
37	0x00000000	0.0
38	0x00000000	0.0
39	0x00000000	0.0
40	0x00000000	0.0
41	0x00000000	0.0
42	0x00000000	0.0
43	0x00000000	0.0
44	0x00000000	0.0
45	0x00000000	0.0
46	0x00000000	0.0
47	0x00000000	0.0
48	0x00000000	0.0
49	0x00000000	0.0

arr_6 f4 [50, 15]
0	0x3e203f02	0.15649036
1	0x3e1cfece	0.15331575
2	0x3e702020	0.23449755
3	0xbd95d45c	-0.07315895
4	0xbe24db08	-0.16099179
5	0x3e88f324	0.26748002
6	0xbda106c6	-0.0786262
7	0x3d84d750	0.0648638
8	0xbe6d2a28	-0.23160613
9	0x3e1cc456	0.15309271
10	0x3d0ae138	0.03390619
11	0xbe40304c	-0.18768424
12	0x3e4d9270	0.20075393
13	0x3da6a598	0.08137053
14	0x3e996388	0.2995875
15	0xbe755112	-0.23956707
16	0x3e4155e2	0.18880418
17	0xbe2d0791	-0.16897418
18	0xbe188d46	-0.14897642
19	0xbd98e6ba	-0.074658826
20	0x3a287800	0.0006426573
21	0x3d131df8	0.035917252
22	0xbe4a72da	-0.19770375
23	0x3e819ee6	0.25316542
24	0xbe177133	-0.14789276
25	0xbd9d2202	-0.07672502
26	0x3e918dc4	0.2842847
27	0x3c68c440	0.014206946
28	0xbe8b6918	-0.27228618
29	0xbd1360a8	-0.03598085
30	0xbca77540	-0.020441651
31	0xbe7e7241	-0.24848272
32	0xbd21a1b8	-0.039460868
33	0xbd52cfe0	-0.051467776
34	0x3e265f34	0.16247255
35	0x3db73850	0.08946288
36	0x3dd07390	0.10178292
37	0xbd1f8478	-0.03894469
38	0x3e1b3a04	0.1515885
39	0xbe67c6ac	-0.22634381
40	0x3a5fd200	0.00085380673
41	0x3e0841fe	0.13306424
42	0xbe913100	-0.28357697
43	0xbc0dff20	-0.008666784
44	0xbe59a673	-0.21254902
45	0x3e2ca83e	0.16861054
46	0xbe8ffd05	-0.28122726
47	0x3bc664c0	0.006054491
48	0x3e372434	0.17884904
49	0xbc13f140	-0.009029686
50	0x3dc75654	0.09733263
51	0x3e5d6bc8	0.21623147
52	0x3d0e81b8	0.03479168
53	0xbe80900f	-0.25109908
54	0x3d6285f0	0.055303514
55	0x3d4e66b8	0.05039093
56	0x3e60fc20	0.21971178
57	0x3e47650c	0.1947214
58	0x3dee9ab0	0.11650598
59	0x3e7fce60	0.2498107
60	0x3d1ee040	0.03878808
61	0xbe0603c4	-0.13087374
62	0x3e66c738	0.22536933
63	0x3ce39ca0	0.027784646
64	0x3e38e390	0.18055558
65	0x3e09661e	0.13417861
66	0xbe611b18	-0.21982992
67	0x3e627114	0.22113448
68	0xbe0a3084	-0.1349507
69	0x3cb99a90	0.022656709
70	0xbdd41bc2	-0.10356857
71	0xbe44eb32	-0.19230345
72	0xbe53967e	-0.20662877
73	0xbd8b377a	-0.06797691
74	0xbe162df9	-0.14665975
75	0xbe99eff3	-0.3006588
76	0xbd2765b0	-0.04086846
77	0x3cba1b10	0.022717983
78	0xbd86ada8	-0.06576091
79	0xbc906950	-0.017628342
80	0x3e12a6b6	0.14321408
81	0x3e658d98	0.22417295
82	0x3d6b85c0	0.0575006
83	0xbe2e453b	-0.17018597
84	0xbe9aff8c	-0.30273092
85	0x3e407962	0.18796304
86	0xbe56208e	-0.20910856
87	0x3e38bdb4	0.18041116
88	0xbd34cb38	-0.044139117
89	0xbdf2420c	-0.11829004
90	0x3c87d1d0	0.016579539
91	0x3dc87bb4	0.097892195
92	0x3e4d9990	0.2007811
93	0x3c81fc40	0.015867352
94	0xbdacc82a	-0.08436616
95	0xbe4b4c5a	-0.19853345
96	0xbe202fdf	-0.15643261
97	0xbe13ee0a	-0.14446273
98	0x3e0d25de	0.13783976
99	0x3e8ef368	0.2792008
100	0x3e8636a8	0.26213574
101	0x3b07dc80	0.0020730793
102	0x3db96f48	0.09054428
103	0xbe7bab9e	-0.24577186
104	0xbd297fc0	-0.041381598
105	0xbdf8bb2a	-0.12145074
106	0xbe846cfa	-0.25864393
107	0xbe5c5706	-0.21517572
108	0xbc52d600	-0.012868404
109	0xbcc40b40	-0.023931146
110	0x3ccd7860	0.025081813
111	0x3c71c860	0.014757246
112	0x3e5722a8	0.21009314
113	0x3d759188	0.059953243
114	0x3dfae538	0.12250751
115	0xb9052800	-0.0001269877
116	0x3e62bf4c	0.22143286
117	0x3e824ff0	0.25451612
118	0x3da13268	0.07870942
119	0xbd729ff8	-0.05923459
120	0x3dfce044	0.12347463
121	0xbdb28542	-0.08716823
122	0x3e433bf0	0.19065833
123	0x3e09d982	0.13461879
124	0xbd1801f0	-0.037111223
125	0x3e72a590	0.2369597
126	0x3d28a738	0.041175097
127	0x3e6808fc	0.22659677
128	0xbe5389ec	-0.20658082
129	0xbc394ec0	-0.011310279
130	0x3e665494	0.22493201
131	0x3dd2fe3c	0.103023976
132	0xbd51f668	-0.051260382
133	0x3e976478	0.2956884
134	0xbe45b03e	-0.19305512
135	0x3e008dde	0.12554118
136	0x3e15f672	0.14644793
137	0xbe4f38ce	-0.20236513
138	0xbe988e8e	-0.2979626
139	0x3d568880	0.05237627
140	0x3e7a10cc	0.2442047
141	0xbe816048	-0.2526877
142	0x3e392aa4	0.18082672
143	0xbe94b796	-0.29046315
144	0xbde41be2	-0.11138131
145	0xbd573e40	-0.0525496
146	0x3e077482	0.13228038
147	0x3e203b4e	0.15647623
148	0x3e843eb2	0.25829083
149	0xbc9dfb40	-0.019284844
150	0xbe8e6300	-0.27809906
151	0x3db8c2fc	0.09021565
152	0x3d471cc8	0.048611432
153	0xbd5f4468	-0.054508597
154	0xbd5ed740	-0.054404497
155	0xbe7a6fb8	-0.2445668
156	0xbce379b0	-0.027767986
157	0xbe169c34	-0.14708024
158	0xbdf10eba	-0.11770387
159	0x3d124a98	0.03571567
160	0xbddb068a	-0.106946066
161	0xbe1866b5	-0.1488293
162	0x3e8be578	0.27323508
163	0xbe75406f	-0.2395036
164	0xbe95e001	-0.29272464
165	0x3e6fe98c	0.23428935
166	0xbc88d240	-0.016701818
167	0x3e292e68	0.16521609
168	0xbe8c2133	-0.2736908
169	0xbe3656bf	-0.17806529
170	0x3e5d68a8	0.21621954
171	0xbe271e97	-0.16320263
172	0x3deaec34	0.114708334
173	0xbdcf083c	-0.101089925
174	0xbe59c042	-0.21264747
175	0x3e580be4	0.21098286
176	0xbe7b588a	-0.24545494
177	0x3e8e3676	0.27775925
178	0x3e84d77a	0.25945646
179	0xbdde23b2	-0.10846652
180	0xbd644f1c	-0.055739507
181	0xbe8f27f9	-0.27960184
182	0xbe07400c	-0.13208026
183	0xbe9b27f9	-0.30303934
184	0x3e14cfa0	0.14532328
185	0x3e618534	0.22023469
186	0x3de0cbfc	0.10976407
187	0xbe679ec6	-0.22619161
188	0x3e96f86a	0.294864
189	0xbe2a90a5	-0.1665674
190	0xbe9b5804	-0.30340588
191	0x3d5309a8	0.05152288
192	0xbdae3f32	-0.08508147
193	0x3dc131d4	0.09433332
194	0xbe729862	-0.23690942
195	0x3e3204ee	0.17384693
196	0x3d607950	0.054803193
197	0x3dfebd1c	0.124384135
198	0x3e726464	0.23671108
199	0xbd363ab0	-0.044489563
200	0xbe91ae36	-0.28453225
201	0xbda1f280	-0.07907581
202	0x3cfe4710	0.031039745
203	0x3a197c00	0.0005854964
204	0x3e73d25c	0.23810714
205	0x3e4c923c	0.19977659
206	0x3e095008	0.13409436
207	0xbb875380	-0.004129827
208	0xbd90a05e	-0.070618376
209	0xbdc9454a	-0.09827669
210	0x3dd1a430	0.102363944
211	0xbe283d3a	-0.16429606
212	0xbe8aa061	-0.27075484
213	0xbd0b9f58	-0.03408751
214	0x3e55a9e0	0.20865583
215	0x3d8b1524	0.06791142
216	0xbe9996dc	-0.2999791
217	0xbe26b083	-0.16278271
218	0x3d257830	0.040397823
219	0xbe82d45b	-0.2555264
220	0x3e364510	0.17799783
221	0x3e9958e8	0.29950643
222	0x3e7a5570	0.24446654
223	0xbe950fbe	-0.29113573
224	0xbdf70882	-0.120621696
225	0xbc4f7c00	-0.012663841
226	0x3e8f6048	0.28003144
227	0x3e38234e	0.17982218
228	0x3dde4800	0.10853577
229	0xbe48e21d	-0.19617505
230	0x3e381142	0.17975333
231	0xbe7e12a6	-0.24811801
232	0x3e79d4c4	0.2439757
233	0x3e5d44dc	0.21608299
234	0x3da93d7c	0.0826368
235	0x3de9b754	0.1141192
236	0x3e8be8b6	0.27325982
237	0xbe82d041	-0.2554951
238	0xbe625448	-0.22102463
239	0xbe548d01	-0.20756914
240	0x3e1b8b7e	0.15189931
241	0x3d74d020	0.059768796
242	0xbdc9d464	-0.098549634
243	0x3e992ee4	0.29918587
244	0x3e158f7e	0.14605519
245	0x3e41f4fe	0.18941113
246	0xbe869fca	-0.26293784
247	0x3e982204	0.29713452
248	0x3d683d10	0.05669886
249	0xbe98bc34	-0.29831088
250	0xbe47673f	-0.19472979
251	0x3e6263b4	0.22108346
252	0xbe389414	-0.18025237
253	0xbe00fb81	-0.12595941
254	0xbe93de17	-0.2888038
255	0xbe149926	-0.14511546

arr_7 f4 [15]
0	0x00000000	0.0
1	0x00000000	0.0
2	0x00000000	0.0
3	0x00000000	0.0
4	0x00000000	0.0
5	0x00000000	0.0
6	0x00000000	0.0
7	0x00000000	0.0
8	0x00000000	0.0
9	0x00000000	0.0
10	0x00000000	0.0
11	0x00000000	0.0
12	0x00000000	0.0
13	0x00000000	0.0
14	0x00000000	0.0
